models/selfie_segmentation_landscape.pth (torch, 463749 bytes, 109 tensors)

selfie_sub_block1.conv1.weight f4 [24, 96, 1, 1]
0.10473633 0.82958984 -0.2211914 0.10900879 0.16040039 0.5126953 0.07550049 -0.9394531
0.13354492 -0.053497314 -0.22570801 -0.9453125 0.015220642 -0.25317383 -0.0008020401 -1.0087891
0.21618652 -0.027328491 0.24780273 0.3125 -0.20703125 -0.045166016 0.105041504 0.5786133
0.31811523 0.45898438 0.029159546 0.08898926 0.24047852 -0.43579102 -0.0013523102 0.6269531
-0.23034668 -1.4111328 0.2602539 0.44580078 0.38305664 -0.73828125 -0.91259766 0.4399414
-0.9921875 0.44262695 -0.5283203 -0.03677368 0.33520508 -0.75146484 -0.0051078796 0.2590332
-0.6972656 0.21105957 0.49365234 0.117004395 -0.04800415 -0.3486328 0.13903809 -0.22302246
-0.7167969 0.31103516 0.18249512 -0.76708984 0.359375 -0.25317383 -0.13476562 -0.37597656
-0.7519531 -0.6459961 -0.11773682 -0.16540527 -0.7788086 -0.08129883 -0.35888672 0.5966797
0.08557129 0.5180664 -0.36816406 -0.016967773 -0.14440918 0.2310791 0.65527344 -0.23986816
-0.064331055 -0.7661133 -0.16430664 0.4638672 -0.19970703 0.6826172 -0.49536133 -0.171875
-0.07849121 0.44726562 -0.08996582 0.21643066 0.38720703 0.41235352 0.15319824 -0.0010995865
0.032714844 -0.053375244 0.06878662 -0.1977539 -0.18005371 0.21569824 0.033050537 0.16711426
0.018722534 -0.21142578 -0.27416992 0.08605957 -0.24353027 0.06549072 0.003156662 -0.115722656
0.024261475 0.14379883 0.08544922 -0.09375 0.031433105 -0.11077881 -0.50634766 0.12695312
-0.22583008 -0.022262573 0.06951904 -0.45874023 -0.42504883 0.05947876 0.00018286705 -0.08917236
0.0050582886 -0.16381836 0.02935791 -0.28149414 -0.10650635 0.042114258 -0.27978516 0.058807373
-0.35058594 -0.29101562 -0.32373047 0.025039673 -0.30297852 0.17529297 0.009155273 -0.13635254
-0.49414062 -0.25146484 -0.4597168 0.07574463 -0.08972168 -0.054260254 0.008705139 -0.07147217
-0.14709473 -0.00504303 -0.034301758 0.0066070557 -0.089416504 -0.04272461 -0.048797607 -0.08728027
-0.30371094 0.21435547 0.2010498 -0.24511719 0.08795166 0.09844971 -0.5 0.021347046
-0.0024108887 -0.11883545 -0.013320923 -0.07727051 -0.3894043 -0.0044898987 -0.04257202 0.2097168
-0.22460938 -0.42358398 -0.105895996 0.0463562 -0.18249512 -0.22583008 -0.23693848 -0.03277588
-0.13623047 -0.15026855 -0.27246094 -0.29614258 0.03567505 -0.068115234 -0.23083496 -0.10864258
-0.0077056885 0.21032715 -0.0035419464 -0.16699219 -0.22558594 0.021331787 -0.1529541 -0.21374512
0.13195801 -0.33764648 -0.101135254 -0.2088623 -0.107910156 -0.14587402 0.03945923 -0.10870361
0.05444336 -0.12512207 0.14526367 0.034484863 -0.059631348 -0.2043457 0.0050468445 -0.109802246
-0.11999512 -0.07366943 -0.08862305 -0.24536133 0.061462402 -0.04815674 -0.058929443 0.040039062
0.0068740845 -0.21252441 -0.11291504 0.13537598 -0.051940918 -0.06323242 0.2211914 -0.10272217
-0.10076904 0.091552734 -0.19787598 -0.03967285 -0.089660645 -0.0007996559 0.039123535 0.11224365
0.04812622 -0.09020996 -0.026641846 0.2088623 -0.12432861 -0.10961914 0.055725098 -0.083984375
0.0010681152 -0.08093262 -0.16491699 -0.18847656 -0.15222168 -0.093322754 0.019348145 -0.26782227
00000000: 0080 d63d 0060 543f 0080 62be 0040 df3d
00000010: 0040 243e 0040 033f 00a0 9a3d 0080 70bf
00000020: 00c0 083e 0020 5bbd 0020 67be 0000 72bf
00000030: 0060 793c 00a0 81be 0040 52ba 0020 81bf
00000040: 0060 5d3e 00e0 dfbc 00c0 7d3e 0000 a03e
00000050: 0000 54be 0000 39bd 0020 d73d 0020 143f
00000060: 00e0 a23e 0000 eb3e 00e0 ee3c 0040 b63d
00000070: 0040 763e 0020 dfbe 0040 b1ba 0080 203f
00000080: 00e0 6bbe 00a0 b4bf 0040 853e 0040 e43e
00000090: 0020 c43e 0000 3dbf 00a0 69bf 0040 e13e
000000a0: 0000 7ebf 00a0 e23e 0040 07bf 00a0 16bd
000000b0: 00a0 ab3e 0060 40bf 0060 a7bb 00a0 843e
000000c0: 0080 32bf 0020 583e 00c0 fc3e 00a0 ef3d
000000d0: 00a0 44bd 0080 b2be 0060 0e3e 0060 64be
000000e0: 0080 37bf 0040 9f3e 00e0 3a3e 0060 44bf
000000f0: 0000 b83e 00a0 81be 0000 0abe 0080 c0be
00000100: 0080 40bf 0060 25bf 0020 f1bd 0060 29be
00000110: 0060 47bf 0080 a6bd 00c0 b7be 00c0 183f
00000120: 0040 af3d 00a0 043f 0080 bcbe 0000 8bbc
00000130: 00e0 13be 00a0 6c3e 00c0 273f 00a0 75be
00000140: 00c0 83bd 0020 44bf 0040 28be 0080 ed3e
00000150: 0080 4cbe 00c0 2e3f 00a0 fdbe 0000 30be
00000160: 00c0 a0bd 0000 e53e 0040 b8bd 00a0 5d3e
00000170: 0040 c63e 0020 d33e 00e0 1c3e 0020 90ba
00000180: 0000 063d 00a0 5abd 00e0 8c3d 0080 4abe
00000190: 0060 38be 00e0 5c3e 0060 073d 0020 2b3e
000001a0: 0060 993c 0080 58be 0060 8cbe 0040 b03d
000001b0: 0060 79be 0020 863d 00e0 4e3b 0000 edbd
000001c0: 00c0 c63c 0040 133e 0000 af3d 0000 c0bd
000001d0: 00c0 003d 00e0 e2bd 00a0 01bf 0000 023e
000001e0: 0040 67be 0060 b6bc 0060 8e3d 00e0 eabe
000001f0: 00a0 d9be 00a0 733d 00c0 3f39 00a0 b6bd
00000200: 00c0 a53b 00c0 27be 0080 f03c 0020 90be
00000210: 0020 dabd 0080 2c3d 0040 8fbe 00e0 703d
00000220: 0080 b3be 0000 95be 00c0 a5be 0020 cd3c
00000230: 0020 9bbe 0080 333e 0000 163c 00a0 0bbe
00000240: 0000 fdbe 00c0 80be 0060 ebbe 0020 9b3d
00000250: 00c0 b7bd 0040 5ebd 00a0 0e3c 0060 92bd
00000260: 00a0 16be 0040 a5bb 0080 0cbd 0080 d83b
00000270: 0020 b7bd 0000 2fbd 00e0 47bd 00c0 b2bd
00000280: 0080 9bbe 0080 5b3e 00e0 4d3e 0000 7bbe
00000290: 0020 b43d 00a0 c93d 0000 00bf 00e0 ae3c
000002a0: 0000 1ebb 0060 f3bd 0040 5abc 0040 9ebd
000002b0: 0060 c7be 0020 93bb 0060 2ebd 00c0 563e
000002c0: 0000 66be 00e0 d8be 00e0 d8bd 00e0 3d3d
000002d0: 00e0 3abe 0040 67be 00a0 72be 0040 06bd
000002e0: 0080 0bbe 00e0 19be 0080 8bbe 00a0 97be
000002f0: 0020 123d 0080 8bbd 0060 6cbe 0080 debd
00000300: 0080 fcbb 0060 573e 0020 68bb 0000 2bbe
00000310: 0000 67be 00c0 ae3c 00a0 1cbe 00e0 5abe
00000320: 0020 073e 00e0 acbe 0020 cfbd 00e0 55be
00000330: 0000 ddbd 0060 15be 00a0 213d 00a0 debd
00000340: 0000 5f3d 0020 00be 00c0 143e 0040 0d3d
00000350: 0040 74bd 0040 51be 0060 a53b 00e0 e0bd
00000360: 00c0 f5bd 00e0 96bd 0080 b5bd 0040 7bbe
00000370: 00c0 7b3d 0040 45bd 0060 71bd 0000 243d
00000380: 0040 e13b 00a0 59be 0040 e7bd 00a0 0a3e
00000390: 00c0 54bd 0080 81bd 0080 623e 0060 d2bd
000003a0: 0060 cebd 0080 bb3d 00a0 4abe 0080 22bd
000003b0: 00a0 b7bd 00a0 51ba 0040 203d 00e0 e53d
000003c0: 0020 453d 00c0 b8bd 0040 dabc 00e0 553e
000003d0: 00a0 febd 0080 e0bd 0040 643d 0000 acbd
000003e0: 0000 8c3a 00c0 a5bd 00e0 28be 0000 41be
000003f0: 00e0 1bbe 0020 bfbd 0080 9e3c 0020 89be

selfie_sub_block1.conv1.bias f4 [24]
0.11669922 -0.1661377 -0.109375 -0.006389618 -0.18591309 -0.019180298 0.04458618 0.18054199
-0.35302734 0.14160156 -0.08251953 -0.12194824 0.26635742 -0.054138184 -0.15490723 0.16467285
-0.06335449 -0.24768066 0.13427734 0.18566895 0.07928467 0.21838379 0.35888672 0.0703125
00000000: 0000 ef3d 0020 2abe 0000 e0bd 0060 d1bb
00000010: 0060 3ebe 0020 9dbc 00a0 363d 00e0 383e
00000020: 00c0 b4be 0000 113e 0000 a9bd 00c0 f9bd
00000030: 0060 883e 00c0 5dbd 00a0 1ebe 00a0 283e
00000040: 00c0 81bd 00a0 7dbe 0080 093e 0020 3e3e
00000050: 0060 a23d 00a0 5f3e 00c0 b73e 0000 903d

selfie_sub_block1.conv2.weight f4 [96, 24, 1, 1]
0.08996582 -0.14929199 -0.21862793 -0.10748291 -0.1340332 -0.013397217 -0.29663086 0.72021484
0.5517578 -0.24255371 0.23486328 -0.064697266 -0.27392578 0.33618164 -0.1875 0.046722412
0.22729492 -0.034606934 -0.036346436 -0.0524292 0.18432617 -0.31518555 0.43603516 0.31811523
0.13195801 -0.05279541 0.11846924 -0.2529297 0.13916016 -1.046875 -0.22167969 -0.42285156
0.20141602 0.30566406 0.27539062 -0.20739746 0.23669434 0.061279297 -0.11383057 -1.9814453
0.4296875 -0.33911133 -0.7133789 0.49194336 0.7915039 0.45239258 0.24194336 -0.81689453
0.6713867 -0.11437988 0.095336914 -0.55615234 -0.10888672 0.34423828 0.49194336 0.69140625
-0.39331055 -0.60498047 -0.39160156 -0.09259033 -0.60546875 0.055267334 -0.13806152 0.24572754
-0.13378906 -0.27514648 -0.37231445 -0.43310547 0.7338867 -0.34643555 0.1194458 0.4663086
0.8046875 0.062927246 -0.14013672 -0.37329102 0.15600586 0.052886963 -0.17993164 0.6152344
-0.12646484 0.4946289 -0.02670288 0.09515381 -0.20678711 -0.054840088 -0.08105469 0.35791016
0.09429932 -0.37524414 0.022125244 -0.40283203 0.44506836 -0.50341797 0.3466797 -0.5205078
-0.2401123 0.19177246 -0.0473938 0.44799805 0.05038452 0.18664551 -0.0949707 -0.04324341
0.015899658 0.29248047 0.17858887 -0.2565918 -0.07739258 0.12854004 -0.07495117 0.0004930496
0.29003906 -0.005332947 0.049102783 0.55078125 -0.38671875 -0.15881348 0.6923828 0.12060547
-0.26000977 0.09680176 -0.15527344 0.19555664 0.25878906 -0.12902832 0.15820312 0.03768921
0.39672852 0.56152344 -0.008132935 -0.19189453 -0.25854492 0.01676941 0.010536194 0.18652344
0.1550293 0.17614746 0.2553711 -0.09173584 -0.20117188 -0.091796875 0.28173828 0.47143555
0.37353516 -0.20935059 0.023956299 -0.091796875 0.11199951 -0.2331543 0.02885437 0.40722656
-0.44458008 -0.005050659 -0.22375488 0.23999023 -0.2770996 -0.3798828 -0.024993896 -2.0859375
0.0034484863 -0.021362305 -1.2021484 0.0042419434 1.2158203 0.09399414 0.6352539 -0.14123535
-0.07635498 -0.09692383 -0.02973938 -0.25708008 0.18334961 -0.12414551 -0.1373291 -0.30517578
-0.29614258 0.3798828 -0.3840332 0.18884277 0.49438477 -0.27905273 -0.012329102 0.22473145
0.35913086 -0.027557373 0.09246826 0.40112305 0.19372559 0.114990234 0.11627197 0.30322266
-0.018844604 -0.19470215 -0.091552734 0.04827881 -0.14208984 -0.32348633 -0.28979492 -1.0009766
0.18493652 1.5361328 -0.45141602 0.11053467 0.4519043 0.053222656 -0.18945312 0.57714844
-0.2553711 -0.117492676 -0.08404541 1.4892578 0.48120117 0.12225342 0.68359375 -0.29907227
0.71728516 0.08135986 -0.21081543 -0.67285156 0.117004395 0.4375 -0.19250488 1.1933594
0.021713257 -0.62939453 0.6855469 -0.071899414 -0.31469727 1.6699219 -0.15332031 1.8876953
0.34985352 -0.28759766 1.0292969 -0.40283203 0.4345703 0.013168335 -0.020492554 -0.52197266
0.09979248 0.19042969 0.0099487305 0.013198853 -0.10406494 -0.1842041 -0.22155762 0.4819336
0.07232666 0.06854248 -0.16503906 -0.02935791 -0.15307617 -0.08496094 0.1315918 -0.20727539
00000000: 0040 b83d 00e0 18be 00e0 5fbe 0020 dcbd
00000010: 0040 09be 0080 5bbc 00e0 97be 0060 383f
00000020: 0040 0d3f 0060 78be 0080 703e 0080 84bd
00000030: 0040 8cbe 0020 ac3e 0000 40be 0060 3f3d
00000040: 00c0 683e 00c0 0dbd 00e0 14bd 00c0 56bd
00000050: 00c0 3c3e 0060 a1be 0040 df3e 00e0 a23e
00000060: 0020 073e 0040 58bd 00a0 f23d 0080 81be
00000070: 0080 0e3e 0000 86bf 0000 63be 0080 d8be
00000080: 0040 4e3e 0080 9c3e 0000 8d3e 0060 54be
00000090: 0060 723e 0000 7b3d 0020 e9bd 00a0 fdbf
000000a0: 0000 dc3e 00a0 adbe 00a0 36bf 00e0 fb3e
000000b0: 00a0 4a3f 00a0 e73e 00c0 773e 0020 51bf
000000c0: 00e0 2b3f 0040 eabd 0040 c33d 0060 0ebf
000000d0: 0000 dfbd 0040 b03e 00e0 fb3e 0000 313f
000000e0: 0060 c9be 00e0 1abf 0080 c8be 00a0 bdbd
000000f0: 0000 1bbf 0060 623d 0060 0dbe 00a0 7b3e
00000100: 0000 09be 00e0 8cbe 00a0 bebe 00c0 ddbe
00000110: 00e0 3b3f 0060 b1be 00a0 f43d 00c0 ee3e
00000120: 0000 4e3f 00e0 803d 0080 0fbe 0020 bfbe
00000130: 00c0 1f3e 00a0 583d 0040 38be 0080 1d3f
00000140: 0080 01be 0040 fd3e 00c0 dabc 00e0 c23d
00000150: 00c0 53be 00a0 60bd 0000 a6bd 0040 b73e
00000160: 0020 c13d 0020 c0be 0040 b53c 0040 cebe
00000170: 00e0 e33e 00e0 00bf 0080 b13e 0040 05bf
00000180: 00e0 75be 0060 443e 0020 42bd 0060 e53e
00000190: 0060 4e3d 0020 3f3e 0080 c2bd 0020 31bd
000001a0: 0040 823c 00c0 953e 00e0 363e 0060 83be
000001b0: 0080 9ebd 00a0 033e 0080 99bd 0040 013a
000001c0: 0080 943e 00c0 aebb 0020 493d 0000 0d3f
000001d0: 0000 c6be 00a0 22be 0040 313f 0000 f73d
000001e0: 0020 85be 0040 c63d 0000 1fbe 0040 483e
000001f0: 0080 843e 0020 04be 0000 223e 0060 1a3d
00000200: 0020 cb3e 00c0 0f3f 0040 05bc 0080 44be
00000210: 0060 84be 0060 893c 00a0 2c3c 0000 3f3e
00000220: 00c0 1e3e 0060 343e 00c0 823e 00e0 bbbd
00000230: 0000 4ebe 0000 bcbd 0040 903e 0060 f13e
00000240: 0040 bf3e 0060 56be 0040 c43c 0000 bcbd
00000250: 0060 e53d 00c0 6ebe 0060 ec3c 0080 d03e
00000260: 00a0 e3be 0080 a5bb 0020 65be 00c0 753e
00000270: 00e0 8dbe 0080 c2be 00c0 ccbc 0080 05c0
00000280: 0000 623b 0000 afbc 00e0 99bf 0000 8b3b
00000290: 00a0 9b3f 0080 c03d 00a0 223f 00a0 10be
000002a0: 0060 9cbd 0080 c6bd 00a0 f3bc 00a0 83be
000002b0: 00c0 3b3e 0040 febd 00a0 0cbe 0040 9cbe
000002c0: 00a0 97be 0080 c23e 00a0 c4be 0060 413e
000002d0: 0020 fd3e 00e0 8ebe 0000 4abc 0020 663e
000002e0: 00e0 b73e 00c0 e1bc 0060 bd3d 0060 cd3e
000002f0: 0060 463e 0080 eb3d 0020 ee3d 0040 9b3e
00000300: 0060 9abc 0060 47be 0080 bbbd 00c0 453d
00000310: 0080 11be 00a0 a5be 0060 94be 0020 80bf
00000320: 0060 3d3e 00a0 c43f 0020 e7be 0060 e23d
00000330: 0060 e73e 0000 5a3d 0000 42be 00c0 133f
00000340: 00c0 82be 00a0 f0bd 0020 acbd 00a0 be3f
00000350: 0060 f63e 0060 fa3d 0000 2f3f 0020 99be
00000360: 00a0 373f 00a0 a63d 00e0 57be 0040 2cbf
00000370: 00a0 ef3d 0000 e03e 0020 45be 00c0 983f
00000380: 00e0 b13c 0020 21bf 0080 2f3f 0040 93bd
00000390: 0020 a1be 00c0 d53f 0000 1dbe 00a0 f13f
000003a0: 0020 b33e 0040 93be 00c0 833f 0040 cebe
000003b0: 0080 de3e 00c0 573c 00e0 a7bc 00a0 05bf
000003c0: 0060 cc3d 0000 433e 0000 233c 0040 583c
000003d0: 0020 d5bd 00a0 3cbe 00e0 62be 00c0 f63e
000003e0: 0020 943d 0060 8c3d 0000 29be 0080 f0bc
000003f0: 00c0 1cbe 0000 aebd 00c0 063e 0040 54be

selfie_sub_block1.conv2.bias f4 [96]
0.30981445 -0.5083008 1.0283203 0.42016602 -0.3774414 0.5727539 -0.2133789 -0.111206055
-0.6459961 1.9863281 -0.4716797 -0.27075195 0.21130371 1.1962891 0.7182617 0.8256836
-0.00018501282 0.019851685 0.40893555 0.049804688 -0.12792969 0.3173828 0.40185547 -0.54003906
-0.062927246 0.31152344 -0.14941406 1.0253906 0.37109375 0.11584473 0.33447266 -0.14477539
0.8222656 0.16638184 0.3552246 -0.10961914 0.48950195 -0.083862305 0.7675781 0.59375
1.1611328 0.39990234 0.14099121 0.16088867 0.38989258 0.20507812 -0.13330078 0.29785156
-0.051849365 -0.14477539 0.47387695 -0.16772461 -0.49169922 0.120788574 0.9526367 0.734375
1.1376953 1.3330078 -0.23840332 0.062927246 0.90625 0.4338379 -0.03152466 1.0400391
0.9277344 0.117614746 -0.13464355 -0.6767578 0.7368164 0.9199219 1.203125 0.7055664
-0.2322998 0.4140625 -0.43969727 0.57470703 1.0527344 0.8227539 0.58154297 -0.2241211
0.6503906 -0.84228516 -0.025299072 -0.11785889 0.3395996 0.007030487 0.30639648 -0.16259766
0.88623047 0.54052734 0.3239746 -0.14245605 0.20117188 -0.11242676 0.12512207 0.29785156
00000000: 00a0 9e3e 0020 02bf 00a0 833f 0020 d73e
00000010: 0040 c1be 00a0 123f 0080 5abe 00c0 e3bd
00000020: 0060 25bf 0040 fe3f 0080 f1be 00a0 8abe
00000030: 0060 583e 0020 993f 00e0 373f 0060 533f
00000040: 0000 42b9 00a0 a23c 0060 d13e 0000 4c3d
00000050: 0000 03be 0080 a23e 00c0 cd3e 0040 0abf
00000060: 00e0 80bd 0080 9f3e 0000 19be 0040 833f
00000070: 0000 be3e 0040 ed3d 0040 ab3e 0040 14be
00000080: 0080 523f 0060 2a3e 00e0 b53e 0080 e0bd
00000090: 00a0 fa3e 00c0 abbd 0080 443f 0000 183f
000000a0: 00a0 943f 00c0 cc3e 0060 103e 00c0 243e
000000b0: 00a0 c73e 0000 523e 0080 08be 0080 983e
000000c0: 0060 54bd 0040 14be 00a0 f23e 00c0 2bbe
000000d0: 00c0 fbbe 0060 f73d 00e0 733f 0000 3c3f
000000e0: 00a0 913f 00a0 aa3f 0020 74be 00e0 803d
000000f0: 0000 683f 0020 de3e 0020 01bd 0020 853f
00000100: 0080 6d3f 00e0 f03d 00e0 09be 0040 2dbf
00000110: 00a0 3c3f 0080 6b3f 0000 9a3f 00a0 343f
00000120: 00e0 6dbe 0000 d43e 0020 e1be 0020 133f
00000130: 00c0 863f 00a0 523f 00e0 143f 0080 65be
00000140: 0080 263f 00a0 57bf 0040 cfbc 0060 f1bd
00000150: 00e0 ad3e 0060 e63b 00e0 9c3e 0080 26be
00000160: 00e0 623f 0060 0a3f 00e0 a53e 00e0 11be
00000170: 0000 4e3e 0040 e6bd 0020 003e 0080 983e

selfie_sub_block1.conv3.weight f4 [32, 96, 1, 1]
0.10235596 -0.40893555 0.3623047 -0.18408203 -0.046142578 0.18347168 -0.07836914 0.17041016
0.31298828 0.09649658 0.44555664 -0.030654907 -0.22033691 -0.18432617 -0.32885742 0.23876953
0.06512451 0.1496582 -0.33911133 -0.17773438 -0.12573242 0.085754395 0.32080078 -0.009422302
0.15368652 -0.0048675537 -0.32788086 -0.08081055 0.34643555 -0.038146973 -0.19812012 -0.3005371
-0.7885742 0.28930664 0.2770996 -0.023010254 0.23962402 -0.31811523 -0.12060547 0.359375
0.28881836 0.14807129 -0.26757812 0.0513916 0.5097656 0.05105591 -0.072265625 0.07702637
0.15124512 0.045654297 0.12536621 0.13916016 -0.18579102 0.057739258 -0.046447754 -0.072021484
0.15979004 0.6455078 0.12963867 0.11920166 0.1027832 0.13781738 -0.026245117 0.29174805
-0.004463196 0.08258057 0.025894165 -0.037963867 0.043548584 0.3466797 0.31689453 -0.038848877
-0.017913818 0.05227661 -0.47509766 0.42529297 0.46484375 -0.032104492 0.3762207 0.06451416
0.11645508 -0.09173584 -0.27124023 0.49389648 0.23168945 0.09674072 0.18615723 -0.12145996
0.054718018 -0.14147949 -0.09539795 0.10455322 -0.18334961 0.044067383 -0.05041504 0.10119629
-0.06854248 -0.025909424 -0.3083496 -0.18481445 0.30029297 -0.2927246 0.0413208 0.12939453
-0.04168701 0.10180664 -0.01449585 -0.1673584 0.2722168 -0.034088135 -0.1574707 -0.14758301
0.43579102 0.22741699 0.026733398 0.12402344 -0.013824463 -0.34155273 0.009262085 0.17224121
0.028701782 -0.0012397766 -0.09857178 0.090148926 0.012619019 -0.4152832 -0.11077881 -0.038116455
0.30859375 -0.011276245 -0.4338379 -0.07788086 0.21325684 0.27954102 -0.46606445 -0.26000977
0.1583252 0.2841797 0.05899048 0.022537231 0.13903809 0.022491455 0.10656738 0.04815674
-0.1048584 0.07849121 0.08709717 -0.035308838 0.08758545 0.06903076 -0.15148926 0.018234253
-0.33325195 0.029937744 -0.064697266 -0.27416992 0.33154297 -0.3618164 0.03665161 -0.044158936
-0.25170898 0.15466309 -0.109069824 -0.06756592 -0.048461914 0.076416016 0.010246277 0.024261475
0.0025234222 -0.021377563 -0.29418945 0.032318115 -0.113464355 0.13513184 0.15710449 -0.18725586
0.19482422 -0.037628174 -0.29418945 -0.04159546 -0.25610352 0.14294434 0.41796875 -0.12597656
0.052490234 0.14331055 -0.056121826 0.30932617 0.089782715 -0.07086182 0.078063965 0.19580078
-0.14819336 0.21240234 -0.45288086 0.034118652 0.29614258 -0.35717773 -0.26220703 0.36547852
-0.41796875 -0.2861328 -0.08532715 0.30273438 -0.22241211 0.7207031 0.07409668 0.18835449
-0.13500977 -0.32421875 -0.09057617 -0.04397583 -0.79785156 -0.053222656 0.11798096 0.114868164
-0.34545898 -0.1751709 -0.03515625 -0.064208984 0.020141602 -0.5942383 0.09906006 0.5288086
0.10882568 -0.13085938 0.36645508 0.04949951 -0.4189453 0.15844727 0.39916992 -0.0670166
-0.73876953 -0.5058594 0.039154053 -0.2565918 -0.66308594 -0.671875 0.19567871 0.33691406
0.4909668 0.093811035 0.19104004 -0.28442383 -0.022445679 0.4885254 0.67089844 -0.13964844
-0.27392578 0.039154053 -0.28222656 0.058929443 0.7001953 -0.38598633 0.4267578 -0.76953125
00000000: 00a0 d13d 0060 d1be 0080 b93e 0080 3cbe
00000010: 0000 3dbd 00e0 3b3e 0080 a0bd 0080 2e3e
00000020: 0040 a03e 00a0 c53d 0020 e43e 0020 fbbc
00000030: 00a0 61be 00c0 3cbe 0060 a8be 0080 743e
00000040: 0060 853d 0040 193e 00a0 adbe 0000 36be
00000050: 00c0 00be 00a0 af3d 0040 a43e 0060 1abc
00000060: 0060 1d3e 0080 9fbb 00e0 a7be 0080 a5bd
00000070: 0060 b13e 0040 1cbd 00e0 4abe 00e0 99be
00000080: 00e0 49bf 0020 943e 00e0 8d3e 0080 bcbc
00000090: 0060 753e 00e0 a2be 0000 f7bd 0000 b83e
000000a0: 00e0 933e 00a0 173e 0000 89be 0080 523d
000000b0: 0080 023f 0020 513d 0000 94bd 00c0 9d3d
000000c0: 00e0 1a3e 0000 3b3d 0060 003e 0080 0e3e
000000d0: 0040 3ebe 0080 6c3d 0040 3ebd 0080 93bd
000000e0: 00a0 233e 0040 253f 00c0 043e 0020 f43d
000000f0: 0080 d23d 0020 0d3e 0000 d7bc 0060 953e
00000100: 0040 92bb 0020 a93d 0020 d43c 0080 1bbd
00000110: 0060 323d 0080 b13e 0040 a23e 0020 1fbd
00000120: 00c0 92bc 0020 563d 0040 f3be 00c0 d93e
00000130: 0000 ee3e 0080 03bd 00a0 c03e 0020 843d
00000140: 0080 ee3d 00e0 bbbd 00e0 8abe 00e0 fc3e
00000150: 0040 6d3e 0020 c63d 00a0 3e3e 00c0 f8bd
00000160: 0020 603d 00e0 10be 0060 c3bd 0020 d63d
00000170: 00c0 3bbe 0080 343d 0080 4ebd 0040 cf3d
00000180: 0060 8cbd 0040 d4bc 00e0 9dbe 0040 3dbe
00000190: 00c0 993e 00e0 95be 0040 293d 0080 043e
000001a0: 00c0 2abd 0080 d03d 0080 6dbc 0060 2bbe
000001b0: 0060 8b3e 00a0 0bbd 0040 21be 0020 17be
000001c0: 0020 df3e 00e0 683e 0000 db3c 0000 fe3d
000001d0: 0080 62bc 00e0 aebe 00c0 173c 0060 303e
000001e0: 0020 eb3c 0080 a2ba 00e0 c9bd 00a0 b83d
000001f0: 00c0 4e3c 00a0 d4be 00e0 e2bd 0020 1cbd
00000200: 0000 9e3e 00c0 38bc 0020 debe 0080 9fbd
00000210: 0060 5a3e 0020 8f3e 00a0 eebe 0020 85be
00000220: 0020 223e 0080 913e 00a0 713d 00a0 b83c
00000230: 0060 0e3e 0040 b83c 0040 da3d 0040 453d
00000240: 00c0 d6bd 00c0 a03d 0060 b23d 00a0 10bd
00000250: 0060 b33d 0060 8d3d 0020 1bbe 0060 953c
00000260: 00a0 aabe 0040 f53c 0080 84bd 0060 8cbe
00000270: 00c0 a93e 0040 b9be 0020 163d 00e0 34bd
00000280: 00e0 80be 0060 1e3e 0060 dfbd 0060 8abd
00000290: 0080 46bd 0080 9c3d 00e0 273c 00c0 c63c
000002a0: 0060 253b 0020 afbc 00a0 96be 0060 043d
000002b0: 0060 e8bd 0060 0a3e 00e0 203e 00c0 3fbe
000002c0: 0080 473e 0020 1abd 00a0 96be 0060 2abd
000002d0: 0020 83be 0060 123e 0000 d63e 0000 01be
000002e0: 0000 573d 00c0 123e 00e0 65bd 0060 9e3e
000002f0: 00e0 b73d 0020 91bd 00e0 9f3d 0080 483e
00000300: 00c0 17be 0080 593e 00e0 e7be 00c0 0b3d
00000310: 00a0 973e 00e0 b6be 0040 86be 0020 bb3e
00000320: 0000 d6be 0080 92be 00c0 aebd 0000 9b3e
00000330: 00c0 63be 0080 383f 00c0 973d 00e0 403e
00000340: 0040 0abe 0000 a6be 0080 b9bd 0020 34bd
00000350: 0040 4cbf 0000 5abd 00a0 f13d 0040 eb3d
00000360: 00e0 b0be 0060 33be 0000 10bd 0080 83bd
00000370: 0000 a53c 0020 18bf 00e0 ca3d 0060 073f
00000380: 00e0 de3d 0000 06be 00a0 bb3e 00c0 4a3d
00000390: 0080 d6be 0040 223e 0060 cc3e 0040 89bd
000003a0: 0020 3dbf 0080 01bf 0060 203d 0060 83be
000003b0: 00c0 29bf 0000 2cbf 0060 483e 0080 ac3e
000003c0: 0060 fb3e 0020 c03d 00a0 433e 00a0 91be
000003d0: 00e0 b7bc 0020 fa3e 00c0 2b3f 0000 0fbe
000003e0: 0040 8cbe 0060 203d 0080 90be 0060 713d
000003f0: 0040 333f 00a0 c5be 0080 da3e 0000 45bf

selfie_sub_block1.conv3.bias f4 [32]
-0.4345703 0.03161621 0.1083374 0.5996094 0.4296875 0.12017822 0.66064453 -0.28051758
0.48266602 -0.051605225 0.2919922 -0.6303711 0.26464844 -0.004211426 1.0527344 0.1270752
-0.57373047 0.04534912 -1.1640625 -0.59765625 0.3544922 0.12561035 -0.6948242 -0.3720703
-0.08203125 0.33422852 -0.35595703 -0.6123047 -0.20141602 -0.085876465 0.35498047 0.3581543
00000000: 0080 debe 0080 013d 00e0 dd3d 0080 193f
00000010: 0000 dc3e 0020 f63d 0020 293f 00a0 8fbe
00000020: 0020 f73e 0060 53bd 0080 953e 0060 21bf
00000030: 0080 873e 0000 8abb 00c0 863f 0020 023e
00000040: 00e0 12bf 00c0 393d 0000 95bf 0000 19bf
00000050: 0080 b53e 00a0 003e 00e0 31bf 0080 bebe
00000060: 0000 a8bd 0020 ab3e 0040 b6be 00c0 1cbf
00000070: 0040 4ebe 00e0 afbd 00c0 b53e 0060 b73e

selfie_block1.conv1.weight f4 [128, 32, 1, 1]
0.32055664 0.028213501 -0.15539551 0.08380127 0.0076904297 0.32788086 0.013092041 -0.10437012
-0.17541504 0.12866211 -0.14892578 0.14477539 0.43188477 0.011398315 0.36328125 -0.14758301
0.015701294 -0.26098633 0.06530762 -0.051239014 0.093811035 -0.08874512 0.16516113 -0.11401367
0.11706543 -0.052703857 0.38793945 -0.22473145 -0.63916016 -0.32080078 0.22827148 0.064819336
-0.0769043 0.19262695 -0.05682373 0.108947754 -0.034362793 -0.09051514 0.06628418 0.06365967
0.060150146 -0.012168884 -0.008995056 -0.094055176 0.039489746 -0.14416504 -0.1772461 0.21008301
-0.13024902 -0.07281494 0.07659912 0.1739502 -0.016738892 -0.021820068 -0.081970215 -0.18640137
-0.047058105 -0.06915283 -0.0033054352 -0.025619507 0.0317688 -0.07659912 0.0072784424 -0.051361084
-0.12017822 -0.03741455 -0.00012683868 0.048339844 -0.064453125 0.042053223 -0.09649658 0.07879639
0.0031604767 0.08325195 0.0158844 0.07220459 0.029769897 -0.0019416809 -0.024047852 0.0030899048
-0.009170532 0.040924072 0.008331299 -0.015434265 -0.043914795 -0.0027503967 -0.024841309 -0.015380859
-0.05105591 -0.092041016 0.054351807 -0.02243042 0.025787354 0.014656067 0.06274414 0.01574707
-0.11291504 -0.07299805 -0.3803711 -0.14990234 0.07623291 0.12371826 0.09649658 0.0036525726
-0.25170898 0.21398926 -0.3486328 0.33325195 0.29663086 -0.16125488 0.35546875 -0.003479004
-0.031143188 -0.22167969 0.15686035 -0.3581543 -0.032196045 -0.38476562 0.25219727 -0.17810059
0.46069336 -0.038116455 0.7055664 -0.3659668 -0.12890625 0.1303711 0.10223389 -0.083984375
0.03189087 -0.028198242 -0.003276825 -0.008834839 0.031402588 0.036102295 -0.030456543 -0.008163452
0.013198853 -0.010620117 -0.007499695 -0.0063056946 0.015098572 -0.012413025 -0.02305603 0.062042236
0.090270996 -0.00920105 0.021026611 0.008811951 -0.04449463 0.04751587 0.019760132 -0.024414062
-0.034423828 -0.007331848 -0.025741577 0.008956909 0.0057411194 -0.005962372 0.00356102 -0.03463745
-0.08520508 0.08959961 0.030593872 0.20507812 -0.11395264 0.20739746 -0.007411957 -0.045562744
0.20422363 0.0040016174 -0.18835449 -0.10308838 0.10809326 0.3876953 0.1315918 -0.2541504
0.03414917 -0.11425781 -0.10748291 -0.0423584 -0.09820557 0.29345703 -0.19604492 -0.2364502
-0.057800293 0.2253418 -0.015808105 -0.27368164 -0.2232666 0.0008096695 -0.20751953 -0.15246582
0.064208984 0.26635742 -0.31933594 -0.10797119 -0.0007596016 -0.29345703 0.39990234 0.16967773
-0.053985596 -0.4465332 0.032348633 -0.26123047 -0.25024414 -0.2368164 0.32080078 0.2890625
-0.3955078 -0.08703613 0.09692383 0.7128906 0.10736084 0.20751953 -0.40039062 0.0826416
0.3828125 0.30541992 0.29956055 0.45214844 0.016586304 -0.6591797 0.20275879 -0.027938843
0.1661377 0.44970703 -0.1295166 -0.23400879 -0.23803711 0.13354492 -0.26293945 -0.15075684
-0.36865234 0.27319336 0.17663574 0.16760254 0.11187744 -0.38110352 -0.13781738 -0.29907227
0.014732361 -0.40527344 0.51171875 -0.26489258 -0.29125977 0.23706055 0.2130127 0.1899414
0.38134766 -0.1772461 0.015319824 -0.43603516 -0.24389648 0.3034668 -0.16333008 -0.024459839
00000000: 0020 a43e 0020 e73c 0020 1fbe 00a0 ab3d
00000010: 0000 fc3b 00e0 a73e 0080 563c 00c0 d5bd
00000020: 00a0 33be 00c0 033e 0080 18be 0040 143e
00000030: 0020 dd3e 00c0 3a3c 0000 ba3e 0020 17be
00000040: 00a0 803c 00a0 85be 00c0 853d 00e0 51bd
00000050: 0020 c03d 00c0 b5bd 0020 293e 0080 e9bd
00000060: 00c0 ef3d 00e0 57bd 00a0 c63e 0020 66be
00000070: 00a0 23bf 0040 a4be 00c0 693e 00c0 843d
00000080: 0080 9dbd 0040 453e 00c0 68bd 0020 df3d
00000090: 00c0 0cbd 0060 b9bd 00c0 873d 0060 823d
000000a0: 0060 763d 0060 47bc 0060 13bc 00a0 c0bd
000000b0: 00c0 213d 00a0 13be 0080 35be 0020 573e
000000c0: 0060 05be 0020 95bd 00e0 9c3d 0020 323e
000000d0: 0020 89bc 00c0 b2bc 00e0 a7bd 00e0 3ebe
000000e0: 00c0 40bd 00a0 8dbd 00a0 58bb 00e0 d1bc
000000f0: 0020 023d 00e0 9cbd 0080 ee3b 0060 52bd
00000100: 0020 f6bd 0040 19bd 0000 05b9 0000 463d
00000110: 0000 84bd 0040 2c3d 00a0 c5bd 0060 a13d
00000120: 0020 4f3b 0080 aa3d 0020 823c 00e0 933d
00000130: 00e0 f33c 0080 feba 0000 c5bc 0080 4a3b
00000140: 0040 16bc 00a0 273d 0080 083c 00e0 7cbc
00000150: 00e0 33bd 0040 34bb 0080 cbbc 0000 7cbc
00000160: 0020 51bd 0080 bcbd 00a0 5e3d 00c0 b7bc
00000170: 0040 d33c 0020 703c 0080 803d 0000 813c
00000180: 0040 e7bd 0080 95bd 00c0 c2be 0080 19be
00000190: 0020 9c3d 0060 fd3d 00a0 c53d 0060 6f3b
000001a0: 00e0 80be 0020 5b3e 0080 b2be 00a0 aa3e
000001b0: 00e0 973e 0020 25be 0000 b63e 0000 64bb
000001c0: 0020 ffbc 0000 63be 00a0 203e 0060 b7be
000001d0: 00e0 03bd 0000 c5be 0020 813e 0060 36be
000001e0: 00e0 eb3e 0020 1cbd 00a0 343f 0060 bbbe
000001f0: 0000 04be 0080 053e 0060 d13d 0000 acbd
00000200: 00a0 023d 0000 e7bc 00c0 56bb 00c0 10bc
00000210: 00a0 003d 00e0 133d 0080 f9bc 00c0 05bc
00000220: 0040 583c 0000 2ebc 00c0 f5bb 00a0 cebb
00000230: 0060 773c 0060 4bbc 00e0 bcbc 0020 7e3d
00000240: 00e0 b83d 00c0 16bc 0040 ac3c 0060 103c
00000250: 0040 36bd 00a0 423d 00e0 a13c 0000 c8bc
00000260: 0000 0dbd 0040 f0bb 00e0 d2bc 00c0 123c
00000270: 0020 bc3b 0060 c3bb 0060 693b 00e0 0dbd
00000280: 0080 aebd 0080 b73d 00a0 fa3c 0000 523e
00000290: 0060 e9bd 0060 543e 00e0 f2bb 00a0 3abd
000002a0: 0020 513e 0020 833b 00e0 40be 0020 d3bd
000002b0: 0060 dd3d 0080 c63e 00c0 063e 0020 82be
000002c0: 00e0 0b3d 0000 eabd 0020 dcbd 0080 2dbd
000002d0: 0020 c9bd 0040 963e 00c0 48be 0020 72be
000002e0: 00c0 6cbd 00c0 663e 0080 81bc 0020 8cbe
000002f0: 00a0 64be 0040 543a 0080 54be 0020 1cbe
00000300: 0080 833d 0060 883e 0080 a3be 0020 ddbd
00000310: 0020 47ba 0040 96be 00c0 cc3e 00c0 2d3e
00000320: 0020 5dbd 00a0 e4be 0080 043d 00c0 85be
00000330: 0020 80be 0080 72be 0040 a43e 0000 943e
00000340: 0080 cabe 0040 b2bd 0080 c63d 0080 363f
00000350: 00e0 db3d 0080 543e 0000 cdbe 0040 a93d
00000360: 0000 c43e 0060 9c3e 0060 993e 0080 e73e
00000370: 00e0 873c 00c0 28bf 00a0 4f3e 00e0 e4bc
00000380: 0020 2a3e 0040 e63e 00a0 04be 00a0 6fbe
00000390: 00c0 73be 00c0 083e 00a0 86be 0060 1abe
000003a0: 00c0 bcbe 00e0 8b3e 00e0 343e 00a0 2b3e
000003b0: 0020 e53d 0020 c3be 0020 0dbe 0020 99be
000003c0: 0060 713c 0080 cfbe 0000 033f 00a0 87be
000003d0: 0020 95be 00c0 723e 0020 5a3e 0080 423e
000003e0: 0040 c33e 0080 35be 0000 7b3c 0040 dfbe
000003f0: 00c0 79be 0060 9b3e 0040 27be 0060 c8bc

selfie_block1.conv1.bias f4 [128]
0.2697754 -0.5883789 -0.29663086 -0.38671875 0.10296631 0.56640625 1.1621094 0.5732422
0.5102539 -0.7260742 0.35058594 -0.4555664 -0.06173706 0.15600586 -0.25756836 1.0888672
0.16674805 0.3149414 -0.11810303 0.79296875 -0.14526367 1.0292969 -0.45654297 0.42138672
0.37817383 -0.14978027 0.25097656 -1.5048828 0.13415527 -0.43701172 1.0009766 0.44506836
0.14404297 0.2861328 -0.90527344 0.04269409 -0.3317871 1.0488281 -0.3334961 -0.5908203
-0.3395996 -0.34692383 -0.1697998 -0.34472656 1.2626953 -1.5 -1.296875 0.5283203
-0.46728516 -0.37475586 -1.2431641 -0.7080078 -0.029312134 -0.79296875 0.5961914 -0.3425293
0.78515625 0.68310547 -0.8803711 0.90234375 0.55126953 0.90185547 0.42700195 0.70947266
-0.29052734 -0.6870117 0.34472656 0.7348633 -0.24780273 0.9291992 1.4482422 0.66064453
1.828125 1.484375 -0.2055664 0.121032715 0.8071289 0.31103516 -0.6777344 0.27734375
-0.13671875 1.5693359 0.24975586 1.0273438 -0.6035156 -0.011001587 1.0322266 1.4726562
-0.6879883 0.7836914 -0.41796875 -0.0847168 0.0005774498 -0.6274414 0.6088867 0.21008301
1.0068359 -1.0927734 0.32739258 0.68603516 -0.09411621 0.82714844 0.70996094 0.99121094
0.03942871 -0.08215332 0.19384766 -0.7426758 0.27319336 1.0996094 -0.33154297 -0.6972656
-0.47729492 0.025131226 1.0029297 -0.76953125 0.00064468384 -0.21472168 0.27294922 -0.11407471
0.79785156 -0.14038086 1.1796875 0.71533203 0.17333984 -0.3466797 -0.11779785 -0.6352539
00000000: 0020 8a3e 00a0 16bf 00e0 97be 0000 c6be
00000010: 00e0 d23d 0000 113f 00c0 943f 00c0 123f
00000020: 00a0 023f 00e0 39bf 0080 b33e 0040 e9be
00000030: 00e0 7cbd 00c0 1f3e 00e0 83be 0060 8b3f
00000040: 00c0 2a3e 0040 a13e 00e0 f1bd 0000 4b3f
00000050: 00c0 14be 00c0 833f 00c0 e9be 00c0 d73e
00000060: 00a0 c13e 0060 19be 0080 803e 00a0 c0bf
00000070: 0060 093e 00c0 dfbe 0020 803f 00e0 e33e
00000080: 0080 133e 0080 923e 00c0 67bf 00e0 2e3d
00000090: 00e0 a9be 0040 863f 00c0 aabe 0040 17bf
000000a0: 00e0 adbe 00a0 b1be 00e0 2dbe 0080 b0be
000000b0: 00a0 a13f 0000 c0bf 0000 a6bf 0040 073f
000000c0: 0040 efbe 00e0 bfbe 0020 9fbf 0040 35bf
000000d0: 0020 f0bc 0000 4bbf 00a0 183f 0060 afbe
000000e0: 0000 493f 00e0 2e3f 0060 61bf 0000 673f
000000f0: 0020 0d3f 00e0 663f 00a0 da3e 00a0 353f
00000100: 00c0 94be 00e0 2fbf 0080 b03e 0020 3c3f
00000110: 00c0 7dbe 00e0 6d3f 0060 b93f 0020 293f
00000120: 0000 ea3f 0000 be3f 0080 52be 00e0 f73d
00000130: 00a0 4e3f 0040 9f3e 0080 2dbf 0000 8e3e
00000140: 0000 0cbe 00e0 c83f 00c0 7f3e 0080 833f
00000150: 0080 1abf 0040 34bc 0020 843f 0080 bc3f
00000160: 0020 30bf 00a0 483f 0000 d6be 0080 adbd
00000170: 0060 173a 00a0 20bf 00e0 1b3f 0020 573e
00000180: 00e0 803f 00e0 8bbf 00a0 a73e 00a0 2f3f
00000190: 00c0 c0bd 00c0 533f 00c0 353f 00c0 7d3f
000001a0: 0080 213d 0040 a8bd 0080 463e 0020 3ebf
000001b0: 00e0 8b3e 00c0 8c3f 00c0 a9be 0080 32bf
000001c0: 0060 f4be 00e0 cd3c 0060 803f 0000 45bf
000001d0: 0000 293a 00e0 5bbe 00c0 8b3e 00a0 e9bd
000001e0: 0040 4c3f 00c0 0fbe 0000 973f 0020 373f
000001f0: 0080 313e 0080 b1be 0040 f1bd 00a0 22bf

selfie_block1.conv2.weight f4 [128, 1, 5, 5]
0.040130615 0.5439453 0.5180664 -0.041931152 -0.06903076 -0.18579102 0.6425781 0.55810547
-0.20922852 -0.09466553 -0.5024414 -0.04852295 -0.49169922 -0.29248047 -0.039367676 -0.13012695
0.21936035 0.13208008 0.032440186 0.026153564 0.07470703 -0.0010128021 -0.041168213 0.012313843
0.027679443 -0.30615234 0.38061523 0.2932129 -0.27294922 -0.4255371 -2.2988281 -1.3916016
0.6347656 1.1367188 -0.08001709 -0.15856934 -1.2734375 -1.0957031 0.10021973 0.8496094
0.021148682 -0.34472656 -0.2154541 -0.1685791 -0.11517334 -1.2480469 -0.35253906 -0.35986328
0.09484863 -0.32250977 1.4755859 0.5864258 -1.9414062 -1.2910156 0.45214844 -0.47509766
-1.390625 0.12524414 0.765625 0.30737305 -0.85791016 -0.53759766 4.015625 0.1182251
1.5429688 -0.033569336 0.61376953 3.0527344 -0.22644043 0.5263672 -1.5175781 0.09448242
0.95654297 -0.4489746 -1.3925781 -0.29174805 -0.1973877 0.16760254 0.30981445 0.12054443
-0.097717285 -0.36938477 0.10101318 0.27197266 -0.10546875 -0.060577393 -0.22302246 -0.11706543
0.10723877 -0.095581055 -0.09710693 0.08721924 0.5073242 0.10064697 0.0104522705 0.038909912
0.012878418 0.42456055 0.18237305 0.04736328 0.71875 0.25952148 0.39135742 -0.30615234
0.22570801 3.7832031 3.7382812 -7.4570312 -1.9619141 -2.1171875 2.1074219 -7.9257812
-0.49829102 -1.375 -1.96875 1.1220703 -0.23291016 -2.6875 -0.6069336 0.84033203
0.06726074 -0.06665039 -1.5263672 0.13305664 0.18139648 -0.068237305 -0.020889282 0.13671875
0.0770874 0.022018433 -0.16625977 -0.11706543 -0.32714844 -0.11425781 -0.08807373 0.23669434
0.8383789 -0.52441406 -0.4609375 -0.087646484 0.11077881 0.24890137 -0.051879883 -0.21960449
-0.050079346 0.029586792 0.08087158 -0.12512207 -0.06921387 -0.008987427 0.055236816 -0.049224854
-0.090148926 -0.006149292 -0.021377563 -0.07757568 -0.010803223 -0.123291016 -0.06732178 -0.061035156
-0.19812012 -0.027801514 -0.14807129 0.028686523 0.2548828 0.14489746 0.21069336 -0.041748047
-0.24780273 -0.05154419 0.072387695 0.08709717 0.16223145 0.12261963 0.031021118 0.030319214
0.096191406 0.10028076 0.07244873 0.050048828 0.29516602 0.03274536 0.08972168 0.04598999
0.0071487427 0.45117188 -0.2244873 -0.29638672 -0.15270996 -0.12792969 0.45874023 -0.035247803
-0.053222656 -0.14501953 -0.24121094 0.059570312 0.042633057 0.027618408 -0.12573242 -0.1227417
-0.1743164 0.020736694 0.6591797 0.07525635 0.14648438 -0.044311523 -0.17871094 0.85546875
-0.26708984 0.012168884 -0.265625 -0.22753906 -0.72753906 -0.6723633 0.019882202 -0.17529297
-0.08300781 -0.33447266 0.21984863 0.14587402 0.053955078 0.021911621 0.103393555 0.1730957
0.2836914 -0.14111328 0.08068848 0.24182129 0.07702637 -0.03591919 0.125 0.34570312
0.7709961 0.19372559 -0.32910156 -0.02545166 -0.32202148 0.10180664 0.28808594 -0.042175293
-0.11138916 0.046417236 -0.11645508 0.19836426 0.17565918 0.037353516 -0.033691406 -0.09649658
0.041809082 0.096191406 -0.04953003 -0.076171875 -0.2553711 -0.047973633 -0.14172363 -0.009101868
00000000: 0060 243d 0040 0b3f 00a0 043f 00c0 2bbd
00000010: 0060 8dbd 0040 3ebe 0080 243f 00e0 0e3f
00000020: 0040 56be 00e0 c1bd 00a0 00bf 00c0 46bd
00000030: 00c0 fbbe 00c0 95be 0040 21bd 0040 05be
00000040: 00a0 603e 0040 073e 00e0 043d 0040 d63c
00000050: 0000 993d 00c0 84ba 00a0 28bd 00c0 493c
00000060: 00c0 e23c 00c0 9cbe 00e0 c23e 0020 963e
00000070: 00c0 8bbe 00e0 d9be 0020 13c0 0020 b2bf
00000080: 0080 223f 0080 913f 00e0 a3bd 0060 22be
00000090: 0000 a3bf 0040 8cbf 0040 cd3d 0080 593f
000000a0: 0040 ad3c 0080 b0be 00a0 5cbe 00a0 2cbe
000000b0: 00e0 ebbd 00c0 9fbf 0080 b4be 0040 b8be
000000c0: 0040 c23d 0020 a5be 00e0 bc3f 0020 163f
000000d0: 0080 f8bf 0040 a5bf 0080 e73e 0040 f3be
000000e0: 0000 b2bf 0040 003e 0000 443f 0060 9d3e
000000f0: 00a0 5bbf 00a0 09bf 0080 8040 0020 f23d
00000100: 0080 c53f 0080 09bd 0020 1d3f 0060 4340
00000110: 00e0 67be 00c0 063f 0040 c2bf 0080 c13d
00000120: 00e0 743f 00e0 e5be 0040 b2bf 0060 95be
00000130: 0020 4abe 00a0 2b3e 00a0 9e3e 00e0 f63d
00000140: 0020 c8bd 0020 bdbe 00e0 ce3d 0040 8b3e
00000150: 0000 d8bd 0020 78bd 0060 64be 00c0 efbd
00000160: 00a0 db3d 00c0 c3bd 00e0 c6bd 00a0 b23d
00000170: 00e0 013f 0020 ce3d 0040 2b3c 0060 1f3d
00000180: 0000 533c 0060 d93e 00c0 3a3e 0000 423d
00000190: 0000 383f 00e0 843e 0060 c83e 00c0 9cbe
000001a0: 0020 673e 0020 7240 0040 6f40 00a0 eec0
000001b0: 0020 fbbf 0080 07c0 00e0 0640 00a0 fdc0
000001c0: 0020 ffbe 0000 b0bf 0000 fcbf 00a0 8f3f
000001d0: 0080 6ebe 0000 2cc0 0060 1bbf 0020 573f
000001e0: 00c0 893d 0080 88bd 0060 c3bf 0040 083e
000001f0: 00c0 393e 00c0 8bbd 0020 abbc 0000 0c3e
00000200: 00e0 9d3d 0060 b43c 0040 2abe 00c0 efbd
00000210: 0080 a7be 0000 eabd 0060 b4bd 0060 723e
00000220: 00a0 563f 0040 06bf 0000 ecbe 0080 b3bd
00000230: 00e0 e23d 00e0 7e3e 0080 54bd 00e0 60be
00000240: 0020 4dbd 0060 f23c 00a0 a53d 0020 00be
00000250: 00c0 8dbd 0040 13bc 0040 623d 00a0 49bd
00000260: 00a0 b8bd 0080 c9bb 0020 afbc 00e0 9ebd
00000270: 0000 31bc 0080 fcbd 00e0 89bd 0000 7abd
00000280: 00e0 4abe 00c0 e3bc 00a0 17be 0000 eb3c
00000290: 0080 823e 0060 143e 00c0 573e 0000 2bbd
000002a0: 00c0 7dbe 0020 53bd 0040 943d 0060 b23d
000002b0: 0020 263e 0020 fb3d 0020 fe3c 0060 f83c
000002c0: 0000 c53d 0060 cd3d 0060 943d 0000 4d3d
000002d0: 0020 973e 0020 063d 00c0 b73d 0060 3c3d
000002e0: 0040 ea3b 0000 e73e 00e0 65be 00c0 97be
000002f0: 0060 1cbe 0000 03be 00e0 ea3e 0060 10bd
00000300: 0000 5abd 0080 14be 0000 77be 0000 743d
00000310: 00a0 2e3d 0040 e23c 00c0 00be 0060 fbbd
00000320: 0080 32be 00e0 a93c 00c0 283f 0020 9a3d
00000330: 0000 163e 0080 35bd 0000 37be 0000 5b3f
00000340: 00c0 88be 0060 473c 0000 88be 0000 69be
00000350: 0040 3abf 0020 2cbf 00e0 a23c 0080 33be
00000360: 0000 aabd 0040 abbe 0020 613e 0060 153e
00000370: 0000 5d3d 0080 b33c 00c0 d33d 0040 313e
00000380: 0040 913e 0080 10be 0040 a53d 00a0 773e
00000390: 00c0 9d3d 0020 13bd 0000 003e 0000 b13e
000003a0: 0060 453f 0060 463e 0080 a8be 0080 d0bc
000003b0: 00e0 a4be 0080 d03d 0080 933e 00c0 2cbd
000003c0: 0020 e4bd 0020 3e3d 0080 eebd 0020 4b3e
000003d0: 00e0 333e 0000 193d 0000 0abd 00a0 c5bd
000003e0: 0040 2b3d 0000 c53d 00e0 4abd 0000 9cbd
000003f0: 00c0 82be 0080 44bd 0020 11be 0020 15bc

selfie_block1.conv2.bias f4 [128]
-0.5083008 -1.3154297 0.42529297 -0.27734375 -0.37573242 0.09429932 0.0002322197 -0.26489258
-0.018508911 0.03918457 -0.50634766 -0.30932617 -0.28808594 0.23791504 -0.33618164 0.7783203
-1.0058594 -0.17822266 -0.06298828 0.5239258 -0.14758301 0.7680664 -0.15686035 -0.58496094
-0.66796875 0.58935547 0.15344238 -0.061676025 -0.8925781 -0.31567383 0.50390625 0.4272461
-0.8154297 -0.42895508 -0.25878906 -0.5053711 -0.21679688 -0.9267578 -0.22363281 -0.2607422
0.103637695 -0.09918213 -0.74560547 -0.92871094 0.35009766 0.21777344 -0.66015625 -0.05041504
-0.37451172 0.30371094 1.0898438 -0.70410156 -0.53466797 -2.1503906 -0.044677734 -0.9633789
0.07470703 -1.0117188 -0.020507812 0.10986328 -2.234375 -1.0419922 -1.1660156 1.5380859
-0.74072266 -0.3857422 0.3269043 -0.026763916 0.38354492 -1.6943359 1.5439453 0.13244629
0.22595215 -0.15637207 -0.18603516 0.18908691 -1.2792969 -0.3503418 -1.2041016 0.15979004
0.35083008 0.84228516 -0.29541016 -0.8642578 -0.13647461 -0.19482422 -1.2822266 -0.81884766
0.109680176 -1.3710938 0.09033203 -0.0791626 0.28271484 -0.17053223 0.5541992 -1.5332031
0.7988281 -1.9365234 -0.3125 0.1262207 -0.34204102 0.3881836 0.3178711 -0.3347168
0.29248047 -0.45410156 0.2097168 -0.13867188 0.52246094 0.9511719 -0.16101074 -0.33154297
-0.5834961 -0.9213867 -0.2878418 -0.9741211 -0.28076172 -0.5517578 -0.5136719 -0.2861328
-1.9179688 -0.2685547 0.115112305 1.1923828 -0.9980469 -0.20458984 -0.8847656 -0.3244629
00000000: 0020 02bf 0060 a8bf 00c0 d93e 0000 8ebe
00000010: 0060 c0be 0020 c13d 0080 7339 00a0 87be
00000020: 00a0 97bc 0080 203d 00a0 01bf 0060 9ebe
00000030: 0080 93be 00a0 733e 0020 acbe 0040 473f
00000040: 00c0 80bf 0080 36be 0000 81bd 0020 063f
00000050: 0020 17be 00a0 443f 00a0 20be 00c0 15bf
00000060: 0000 2bbf 00e0 163f 0020 1d3e 00a0 7cbd
00000070: 0080 64bf 00a0 a1be 0000 013f 00c0 da3e
00000080: 00c0 50bf 00a0 dbbe 0080 84be 0060 01bf
00000090: 0000 5ebe 0040 6dbf 0000 65be 0080 85be
000000a0: 0040 d43d 0020 cbbd 00e0 3ebf 00c0 6dbf
000000b0: 0040 b33e 0000 5f3e 0000 29bf 0080 4ebd
000000c0: 00c0 bfbe 0080 9b3e 0080 8b3f 0040 34bf
000000d0: 00e0 08bf 00a0 09c0 0000 37bd 00a0 76bf
000000e0: 0000 993d 0080 81bf 0000 a8bc 0000 e13d
000000f0: 0000 0fc0 0060 85bf 0040 95bf 00e0 c43f
00000100: 00a0 3dbf 0080 c5be 0060 a73e 0040 dbbc
00000110: 0060 c43e 00e0 d8bf 00a0 c53f 00a0 073e
00000120: 0060 673e 0020 20be 0080 3ebe 00a0 413e
00000130: 00c0 a3bf 0060 b3be 0020 9abf 00a0 233e
00000140: 00a0 b33e 00a0 573f 0040 97be 0040 5dbf
00000150: 00c0 0bbe 0080 47be 0020 a4bf 00a0 51bf
00000160: 00a0 e03d 0080 afbf 0000 b93d 0020 a2bd
00000170: 00c0 903e 00a0 2ebe 00e0 0d3f 0040 c4bf
00000180: 0080 4c3f 00e0 f7bf 0000 a0be 0040 013e
00000190: 0020 afbe 00c0 c63e 00c0 a23e 0060 abbe
000001a0: 00c0 953e 0080 e8be 00c0 563e 0000 0ebe
000001b0: 00c0 053f 0080 733f 00e0 24be 00c0 a9be
000001c0: 0060 15bf 00e0 6bbf 0060 93be 0060 79bf
000001d0: 00c0 8fbe 0040 0dbf 0080 03bf 0080 92be
000001e0: 0080 f5bf 0080 89be 00c0 eb3d 00a0 983f
000001f0: 0080 7fbf 0080 51be 0080 62bf 0020 a6be

selfie_block1.sub_block.conv1.weight f4 [32, 128, 1, 1]
0.06008911 -0.3984375 0.7324219 -0.22192383 -0.76660156 0.5473633 -0.1315918 -0.6645508
0.0072631836 -0.25708008 -0.15100098 0.76416016 -0.3791504 -0.11254883 -0.077697754 0.30517578
-0.35131836 -0.025497437 -0.4892578 -0.2841797 -0.14782715 0.17272949 0.26245117 0.42260742
0.22070312 0.29711914 0.015457153 -0.36791992 -0.20690918 -0.15783691 0.097839355 0.71191406
-0.12890625 0.35180664 0.09259033 -0.12237549 0.6328125 -0.19152832 0.22729492 -0.7788086
-0.42333984 -1.125 0.43823242 0.33911133 0.29345703 -0.41259766 -1.1142578 0.5888672
0.83447266 0.29516602 0.34155273 -0.20874023 -0.35961914 -0.08270264 0.20349121 0.48364258
0.39501953 0.15588379 -0.7861328 0.31201172 1.0302734 -0.31396484 0.25878906 -0.14001465
-0.79345703 -0.61035156 -0.83251953 0.20141602 -0.46655273 -0.36694336 -0.07885742 -0.26000977
0.020736694 0.3720703 -0.32861328 0.41186523 -0.5292969 0.087524414 0.66015625 -0.46166992
-0.5292969 0.44458008 -0.9785156 -1.3046875 -0.6821289 0.36083984 -0.15881348 -0.068115234
-0.10437012 0.13439941 -0.39208984 0.10675049 -0.22802734 -0.17102051 0.21179199 -0.8696289
-0.18408203 0.6513672 -0.4255371 -0.60498047 0.47998047 -0.47875977 0.28100586 -0.31518555
-0.37939453 -1.1015625 -0.35986328 -0.37841797 0.2421875 -0.068115234 -0.6113281 -0.5288086
-0.27270508 -0.7368164 0.42456055 1.5751953 0.73583984 -0.23571777 0.88378906 0.12988281
0.006500244 0.30615234 0.11425781 -0.5415039 -0.7807617 0.52978516 -0.43164062 0.22937012
0.28173828 0.20727539 0.033996582 0.3564453 0.38183594 -0.578125 0.08807373 0.79589844
-0.057403564 -0.13317871 -0.24597168 0.016281128 -0.08496094 -0.1751709 -0.27319336 -0.29467773
0.6347656 -0.27490234 0.3581543 0.25317383 -0.33740234 -0.15454102 0.2548828 -0.29614258
-0.51953125 -0.53808594 -0.12670898 0.36157227 0.30004883 -0.16955566 -0.18798828 -0.002937317
-0.16015625 -0.018814087 0.35791016 0.119384766 0.103027344 -0.19543457 0.5415039 -0.25341797
0.1784668 0.09625244 0.09057617 -0.09460449 0.49829102 -0.010772705 0.6464844 0.090026855
-0.40649414 -0.03036499 -0.28393555 0.24633789 0.09442139 0.46557617 0.32250977 -0.53564453
-0.30664062 0.30004883 0.13598633 0.35961914 0.04711914 0.12841797 0.15783691 -0.5126953
-0.5595703 0.6777344 0.29589844 0.54785156 0.21813965 0.48876953 0.1508789 -0.58154297
0.033294678 0.35180664 -0.54003906 -0.16040039 0.18066406 -0.31469727 -0.03378296 0.19445801
-0.56347656 -0.107910156 -0.0028133392 -0.08856201 0.11206055 -0.24499512 -0.27539062 -0.8339844
0.9995117 0.28710938 -0.16601562 1.1640625 -0.10845947 0.044036865 0.88964844 -0.3203125
0.26098633 0.0259552 -0.17785645 0.39111328 -0.28735352 -0.54541016 0.05847168 0.42016602
-0.3840332 0.6694336 -0.3125 -0.7524414 -0.26391602 -0.17871094 0.35375977 0.37231445
-0.17785645 -0.01864624 0.18640137 -0.014289856 0.3815918 -0.058502197 0.27612305 -0.07635498
-0.017288208 -0.86376953 0.5263672 0.39160156 0.42138672 -0.05999756 0.19824219 -0.14562988
00000000: 0020 763d 0000 ccbe 0080 3b3f 0040 63be
00000010: 0040 44bf 0020 0c3f 00c0 06be 0020 2abf
00000020: 0000 ee3b 00a0 83be 00a0 1abe 00a0 433f
00000030: 0020 c2be 0080 e6bd 0020 9fbd 0040 9c3e
00000040: 00e0 b3be 00e0 d0bc 0080 fabe 0080 91be
00000050: 0060 17be 00e0 303e 0060 863e 0060 d83e
00000060: 0000 623e 0020 983e 0040 7d3c 0060 bcbe
00000070: 00e0 53be 00a0 21be 0060 c83d 0040 363f
00000080: 0000 04be 0020 b43e 00a0 bd3d 00a0 fabd
00000090: 0000 223f 0020 44be 00c0 683e 0060 47bf
000000a0: 00c0 d8be 0000 90bf 0060 e03e 00a0 ad3e
000000b0: 0040 963e 0040 d3be 00a0 8ebf 00c0 163f
000000c0: 00a0 553f 0020 973e 00e0 ae3e 00c0 55be
000000d0: 0020 b8be 0060 a9bd 0060 503e 00a0 f73e
000000e0: 0040 ca3e 00a0 1f3e 0040 49bf 00c0 9f3e
000000f0: 00e0 833f 00c0 a0be 0080 843e 0060 0fbe
00000100: 0020 4bbf 0040 1cbf 0020 55bf 0040 4e3e
00000110: 00e0 eebe 00e0 bbbe 0080 a1bd 0020 85be
00000120: 00e0 a93c 0080 be3e 0040 a8be 00e0 d23e
00000130: 0080 07bf 0040 b33d 0000 293f 0060 ecbe
00000140: 0080 07bf 00a0 e33e 0080 7abf 0000 a7bf
00000150: 00a0 2ebf 00c0 b83e 00a0 22be 0080 8bbd
00000160: 00c0 d5bd 00a0 093e 00c0 c8be 00a0 da3d
00000170: 0080 69be 0020 2fbe 00e0 583e 00a0 5ebf
00000180: 0080 3cbe 00c0 263f 00e0 d9be 00e0 1abf
00000190: 00c0 f53e 0020 f5be 00e0 8f3e 0060 a1be
000001a0: 0040 c2be 0000 8dbf 0040 b8be 00c0 c1be
000001b0: 0000 783e 0080 8bbd 0080 1cbf 0060 07bf
000001c0: 00a0 8bbe 00a0 3cbf 0060 d93e 00a0 c93f
000001d0: 0060 3c3f 0060 71be 0040 623f 0000 053e
000001e0: 0000 d53b 00c0 9c3e 0000 ea3d 00a0 0abf
000001f0: 00e0 47bf 00a0 073f 0000 ddbe 00e0 6a3e
00000200: 0040 903e 0040 543e 0040 0b3d 0080 b63e
00000210: 0080 c33e 0000 14bf 0060 b43d 00c0 4b3f
00000220: 0020 6bbd 0060 08be 00e0 7bbe 0060 853c
00000230: 0000 aebd 0060 33be 00e0 8bbe 00e0 96be
00000240: 0080 223f 00c0 8cbe 0060 b73e 00a0 813e
00000250: 00c0 acbe 0040 1ebe 0080 823e 00a0 97be
00000260: 0000 05bf 00c0 09bf 00c0 01be 0020 b93e
00000270: 00a0 993e 00a0 2dbe 0080 40be 0080 40bb
00000280: 0000 24be 0020 9abc 0040 b73e 0080 f43d
00000290: 0000 d33d 0020 48be 00a0 0a3f 00c0 81be
000002a0: 00c0 363e 0020 c53d 0080 b93d 00c0 c1bd
000002b0: 0020 ff3e 0080 30bc 0080 253f 0060 b83d
000002c0: 0020 d0be 00c0 f8bc 0060 91be 0040 7c3e
000002d0: 0060 c13d 0060 ee3e 0020 a53e 0020 09bf
000002e0: 0000 9dbe 00a0 993e 0040 0b3e 0020 b83e
000002f0: 0000 413d 0080 033e 00a0 213e 0040 03bf
00000300: 0040 0fbf 0080 2d3f 0080 973e 0040 0c3f
00000310: 0060 5f3e 0040 fa3e 0080 1a3e 00e0 14bf
00000320: 0060 083d 0020 b43e 0040 0abf 0040 24be
00000330: 0000 393e 0020 a1be 0060 0abd 0020 473e
00000340: 0040 10bf 0000 ddbd 0060 38bb 0060 b5bd
00000350: 0080 e53d 00e0 7abe 0000 8dbe 0080 55bf
00000360: 00e0 7f3f 0000 933e 0000 2abe 0000 953f
00000370: 0020 debd 0060 343d 00c0 633f 0000 a4be
00000380: 00a0 853e 00a0 d43c 0020 36be 0040 c83e
00000390: 0020 93be 00a0 0bbf 0080 6f3d 0020 d73e
000003a0: 00a0 c4be 0060 2b3f 0000 a0be 00a0 40bf
000003b0: 0020 87be 0000 37be 0020 b53e 00a0 be3e
000003c0: 0020 36be 00c0 98bc 00e0 3e3e 0020 6abc
000003d0: 0060 c33e 00a0 6fbd 0060 8d3e 0060 9cbd
000003e0: 00a0 8dbc 0020 5dbf 00c0 063f 0080 c83e
000003f0: 00c0 d73e 00c0 75bd 0000 4b3e 0020 15be

selfie_block1.sub_block.conv1.bias f4 [32]
-0.012428284 -0.04788208 0.043823242 0.0016918182 -0.0513916 -0.36010742 -0.27294922 -0.074157715
0.08917236 -0.036071777 -0.10296631 -0.28442383 -0.23083496 0.17565918 -0.2578125 -0.2915039
0.066345215 -0.37768555 -0.68896484 -0.01826477 -0.24682617 -0.08453369 0.11798096 -0.45947266
0.17614746 0.32714844 -0.20361328 -0.23547363 -0.21728516 -0.43164062 -0.0031795502 -0.34375
00000000: 00a0 4bbc 0020 44bd 0080 333d 00c0 dd3a
00000010: 0080 52bd 0060 b8be 00c0 8bbe 00e0 97bd
00000020: 00a0 b63d 00c0 13bd 00e0 d2bd 00a0 91be
00000030: 0060 6cbe 00e0 333e 0000 84be 0040 95be
00000040: 00e0 873d 0060 c1be 0060 30bf 00a0 95bc
00000050: 00c0 7cbe 0020 adbd 00a0 f13d 0040 ebbe
00000060: 0060 343e 0080 a73e 0080 50be 0020 71be
00000070: 0080 5ebe 0000 ddbe 0060 50bb 0000 b0be
