models/selfie_segmentation.pth (torch, 462747 bytes, 109 tensors)

conv2_1.weight f4 [16, 16, 1, 1]
0	0xbd1e0000	-0.03857422
1	0x3d312000	0.04324341
2	0x3f3a0000	0.7265625
3	0x3ecd6000	0.40112305
4	0xbc3b2000	-0.011421204
5	0xbe346000	-0.17614746
6	0x3da52000	0.08062744
7	0x3cdcc000	0.026947021
8	0x3f3d6000	0.7397461
9	0xbf160000	-0.5859375
10	0x3d3f4000	0.046691895
11	0x3e98c000	0.29833984
12	0xbfb06000	-1.3779297
13	0x3cb8c000	0.02255249
14	0xbe4c8000	-0.19970703
15	0x3e5f8000	0.21826172
16	0x3ea4c000	0.32177734
17	0x3ee7e000	0.45288086
18	0xbecb0000	-0.39648438
19	0xbe208000	-0.15673828
20	0xbe3de000	-0.1854248
21	0xbe050000	-0.12988281
22	0xbe0ae000	-0.13562012
23	0xbdf50000	-0.119628906
24	0xbf040000	-0.515625
25	0xbd940000	-0.072265625
26	0x3e150000	0.14550781
27	0x3ec10000	0.37695312
28	0xbe08c000	-0.13354492
29	0xbd468000	-0.048461914
30	0xbe6a6000	-0.22888184
31	0x3c764000	0.015029907
32	0xbe35c000	-0.17749023
33	0xbe29a000	-0.16564941
34	0x3dc46000	0.09588623
35	0x3ec28000	0.3798828
36	0xbfe74000	-1.8066406
37	0x3e28c000	0.16479492
38	0xbddb6000	-0.1071167
39	0x3d4c4000	0.049865723
40	0xbc082000	-0.008308411
41	0xbcbca000	-0.023025513
42	0xbced6000	-0.02897644
43	0xbf1a8000	-0.6035156
44	0xbd0aa000	-0.033843994
45	0x3ea5c000	0.32373047
46	0xbd2d6000	-0.04232788
47	0x3dcd0000	0.100097656
48	0xbdab2000	-0.08355713
49	0xbd99a000	-0.07501221
50	0xbd8d2000	-0.06890869
51	0x3e9be000	0.30444336
52	0x3da5c000	0.08093262
53	0x3e502000	0.20324707
54	0xbdc64000	-0.09680176
55	0x3ec3a000	0.38208008
56	0xbe08e000	-0.13366699
57	0x3f86e000	1.0537109
58	0xbcdfa000	-0.027297974
59	0xbedb4000	-0.42822266
60	0x3fa08000	1.2539062
61	0x3d29c000	0.04144287
62	0xbd8fc000	-0.07019043
63	0xbf776000	-0.9663086
64	0x3cd7c000	0.02633667
65	0xbe5c6000	-0.21520996
66	0x3c41a000	0.011817932
67	0x3e678000	0.22607422
68	0x3ffec000	1.9902344
69	0x3d0e4000	0.034729004
70	0x3dd06000	0.101745605
71	0xbde90000	-0.11376953
72	0xbe3c0000	-0.18359375
73	0xbd924000	-0.07141113
74	0x3d5de000	0.0541687
75	0xbfb02000	-1.3759766
76	0xbda8a000	-0.082336426
77	0xbfdb8000	-1.7148438
78	0xbe834000	-0.25634766
79	0x3ed6e000	0.41967773
80	0x3cadc000	0.021209717
81	0x3c930000	0.017944336
82	0x3f0de000	0.5541992
83	0x3ea42000	0.32055664
84	0x3bfda000	0.0077400208
85	0xbd0f4000	-0.034973145
86	0x3c004000	0.007827759
87	0x3e158000	0.1459961
88	0x3e2bc000	0.16772461
89	0xbdc40000	-0.095703125
90	0x3c870000	0.016479492
91	0xbd726000	-0.059173584
92	0x3ebd4000	0.3696289
93	0xbc506000	-0.012718201
94	0xbe8ca000	-0.2746582
95	0xbea5e000	-0.3239746
96	0xbd9a4000	-0.07531738
97	0xbcce0000	-0.025146484
98	0xbc336000	-0.010948181
99	0x3d810000	0.06298828
100	0x3aada000	0.0013246536
101	0xbed0e000	-0.40795898
102	0x392cc000	0.00016474724
103	0xbf040000	-0.515625
104	0xbdf72000	-0.120666504
105	0xbeffa000	-0.49926758
106	0x3d466000	0.048431396
107	0x3e2e2000	0.17004395
108	0xbe628000	-0.2211914
109	0x3cf36000	0.029708862
110	0xc0298000	-2.6484375
111	0xbde2c000	-0.11071777
112	0x3dee0000	0.11621094
113	0x3dd22000	0.1026001
114	0x3f404000	0.75097656
115	0x3c654000	0.01399231
116	0xbd714000	-0.058898926
117	0x3e6dc000	0.23217773
118	0xbd332000	-0.04373169
119	0x3db14000	0.08654785
120	0x3dc36000	0.09539795
121	0xbc882000	-0.016616821
122	0x3c510000	0.012756348
123	0x3e9d6000	0.30737305
124	0x3cc98000	0.024597168
125	0x3d44a000	0.04800415
126	0x3debc000	0.115112305
127	0xbd656000	-0.055999756
128	0x3d0ac000	0.03387451
129	0x3b8d0000	0.0043029785
130	0x3e81a000	0.25317383
131	0x3f114000	0.5673828
132	0xbe47e000	-0.19519043
133	0x3dd1e000	0.10247803
134	0xbcd22000	-0.025650024
135	0xbd65a000	-0.05606079
136	0xbe6f8000	-0.23388672
137	0xbe19c000	-0.15014648
138	0x3cf04000	0.029327393
139	0xbf592000	-0.84814453
140	0xbd6ce000	-0.05783081
141	0x3e326000	0.17419434
142	0x3d146000	0.036224365
143	0x3e3ea000	0.18615723
144	0xbdc76000	-0.097351074
145	0xbda9e000	-0.08294678
146	0xbdf60000	-0.12011719
147	0xbedd8000	-0.4326172
148	0x3c8b6000	0.01701355
149	0xbd0dc000	-0.034606934
150	0x3d5b2000	0.053497314
151	0xbd8c4000	-0.068481445
152	0xbef7e000	-0.48413086
153	0xbc7e2000	-0.015510559
154	0xbce88000	-0.028381348
155	0x3c812000	0.01576233
156	0xbdf9e000	-0.12200928
157	0x3c82c000	0.015960693
158	0xbe0ae000	-0.13562012
159	0xbde1e000	-0.11029053
160	0x3ce86000	0.028366089
161	0x3d3f2000	0.046661377
162	0x3eb9c000	0.36279297
163	0x3e1bc000	0.15209961
164	0x3e2ce000	0.16882324
165	0xbdf1e000	-0.11810303
166	0x3e940000	0.2890625
167	0x3cba0000	0.022705078
168	0x3f090000	0.53515625
169	0xbdf9c000	-0.12194824
170	0x3cb12000	0.021621704
171	0x4018e000	2.3886719
172	0x3d7ea000	0.062164307
173	0x3b840000	0.0040283203
174	0x3e196000	0.14978027
175	0xbf528000	-0.8222656
176	0xbe3c8000	-0.18408203
177	0xbe54a000	-0.2076416
178	0x3f0ea000	0.5571289
179	0x3e086000	0.13317871
180	0x3d5b4000	0.053527832
181	0xbed12000	-0.40844727
182	0x3bb46000	0.005504608
183	0x3ea0a000	0.3137207
184	0x3eb48000	0.35253906
185	0xbf422000	-0.7583008
186	0xbdc58000	-0.09643555
187	0xbe66a000	-0.22521973
188	0xbea14000	-0.3149414
189	0x3c9e0000	0.01928711
190	0xbe828000	-0.2548828
191	0xbd6fa000	-0.058502197
192	0xbe490000	-0.19628906
193	0x3ccd8000	0.02508545
194	0xbe4a2000	-0.1973877
195	0xbce6e000	-0.028182983
196	0xbe2cc000	-0.16870117
197	0xbeb54000	-0.3540039
198	0xbe746000	-0.23864746
199	0xbe7d8000	-0.2475586
200	0xbe048000	-0.12939453
201	0x3cd8a000	0.026443481
202	0xbe660000	-0.22460938
203	0x3f488000	0.7832031
204	0xbd9ca000	-0.07647705
205	0xbd280000	-0.041015625
206	0xbf22c000	-0.6357422
207	0x3ead4000	0.3383789
208	0x3ab4e000	0.0013799667
209	0x38a7a000	7.992983e-05
210	0x3eca4000	0.39501953
211	0xbf0e6000	-0.55615234
212	0xbbba2000	-0.005680084
213	0x3e74a000	0.2388916
214	0x3c062000	0.00818634
215	0x3c76e000	0.015068054
216	0xbe264000	-0.16235352
217	0xbd428000	-0.04748535
218	0xba010000	-0.00049209595
219	0xbde3e000	-0.11126709
220	0x3b17e000	0.0023174286
221	0xbc3ba000	-0.011451721
222	0x3cbc2000	0.022964478
223	0xbd794000	-0.06085205
224	0xbb290000	-0.0025787354
225	0xbad7a000	-0.0016450882
226	0xbe8b2000	-0.27172852
227	0x3f2fe000	0.6870117
228	0xba3a8000	-0.00071144104
229	0xbe750000	-0.23925781
230	0x3b654000	0.0034980774
231	0xbb896000	-0.0041923523
232	0x3e59c000	0.21264648
233	0x3d828000	0.0637207
234	0x3ae9c000	0.001783371
235	0x3e032000	0.12805176
236	0x3ccf6000	0.025314331
237	0x3c53a000	0.012916565
238	0xbc652000	-0.01398468
239	0x3d744000	0.059631348
240	0x3db20000	0.08691406
241	0x3d66c000	0.05633545
242	0x3f414000	0.7548828
243	0x3f362000	0.7114258
244	0xbcc38000	-0.023864746
245	0xbf084000	-0.53222656
246	0x3d276000	0.040863037
247	0xbf826000	-1.0185547
248	0xbeeac000	-0.4584961
249	0x3f740000	0.953125
250	0x3d040000	0.032226562
251	0x3e812000	0.25219727
252	0xbed04000	-0.40673828
253	0x3a038000	0.0005016327
254	0xbec3c000	-0.38232422
255	0x3e95e000	0.2927246

conv2_1.bias f4 [16]
0	0x40030000	2.046875
1	0x401f2000	2.4863281
2	0x40a54000	5.1640625
3	0xbed68000	-0.4189453
4	0x3e3d0000	0.18457031
5	0x4005a000	2.0878906
6	0x40ace000	5.4023438
7	0x3f592000	0.84814453
8	0x40732000	3.7988281
9	0x407f6000	3.9902344
10	0xc096c000	-4.7109375
11	0x4031a000	2.7753906
12	0x3fd0c000	1.6308594
13	0x403cc000	2.9492188
14	0x3fcb6000	1.5888672
15	0xbf064000	-0.52441406

conv2_2.weight f4 [16, 1, 3, 3]
0	0xbcd48000	-0.025939941
1	0xbcf40000	-0.029785156
2	0xbc6c2000	-0.014411926
3	0xbced8000	-0.0289917
4	0xbd2d0000	-0.042236328
5	0xbcc16000	-0.023605347
6	0xbc480000	-0.012207031
7	0xbcac0000	-0.020996094
8	0xbc618000	-0.013763428
9	0x3d198000	0.037475586
10	0x3d7d0000	0.061767578
11	0x3d082000	0.033233643
12	0x3d856000	0.06512451
13	0x3db04000	0.08605957
14	0x3d1d8000	0.03845215
15	0x3d1a8000	0.037719727
16	0x3d1d6000	0.03842163
17	0x3c734000	0.014846802
18	0x3cdf0000	0.02722168
19	0x3ccfe000	0.025375366
20	0x3aeb4000	0.0017948151
21	0x3d0d0000	0.034423828
22	0x3d4e6000	0.05038452
23	0x3cc7e000	0.024398804
24	0x3c002000	0.007820129
25	0x3cd88000	0.026428223
26	0x3c9dc000	0.019256592
27	0x3c9fc000	0.019500732
28	0x3ce54000	0.02798462
29	0x3ca26000	0.019821167
30	0x3cf82000	0.030288696
31	0x3d1be000	0.03805542
32	0x3c9b8000	0.018981934
33	0x3c8ac000	0.016937256
34	0x3c582000	0.013191223
35	0x3b44c000	0.0030021667
36	0xbb7fa000	-0.003900528
37	0xbc4dc000	-0.012557983
38	0xbc088000	-0.008331299
39	0xbca06000	-0.019577026
40	0xbcf16000	-0.029464722
41	0xbca62000	-0.02027893
42	0xbc830000	-0.015991211
43	0xbc9b6000	-0.018966675
44	0xbbdaa000	-0.0066719055
45	0xbd79a000	-0.060943604
46	0xbd9a0000	-0.07519531
47	0x3b5cc000	0.0033683777
48	0xbd99a000	-0.07501221
49	0xbdd2c000	-0.10290527
50	0xbc814000	-0.015777588
51	0xbb57e000	-0.003293991
52	0xbccd4000	-0.025054932
53	0xba26e000	-0.0006365776
54	0x3cc7a000	0.024368286
55	0x3cdd4000	0.027008057
56	0x3d008000	0.03137207
57	0x3cdee000	0.02720642
58	0x3cac0000	0.020996094
59	0x3ccda000	0.025100708
60	0x3cc22000	0.0236969
61	0x3c558000	0.013031006
62	0x3c846000	0.016159058
63	0x3c748000	0.014923096
64	0x3d91c000	0.07116699
65	0x3d716000	0.058929443
66	0x3d6c8000	0.057739258
67	0x3dea8000	0.11450195
68	0x3d87c000	0.06628418
69	0x3d466000	0.048431396
70	0x3d468000	0.048461914
71	0x3c582000	0.013191223
72	0x3af9c000	0.0019054413
73	0x3dca6000	0.09881592
74	0x3db5c000	0.08874512
75	0xbdaa4000	-0.08312988
76	0x3bfa0000	0.0076293945
77	0x3d974000	0.07385254
78	0xbdbc2000	-0.09185791
79	0xbd986000	-0.074401855
80	0xbbaae000	-0.005214691
81	0xbd188000	-0.037231445
82	0xbde32000	-0.11090088
83	0xbd57e000	-0.052703857
84	0xbdc9c000	-0.09851074
85	0xbe1bc000	-0.15209961
86	0xbd652000	-0.05593872
87	0xbd7e6000	-0.06210327
88	0xbd6a0000	-0.057128906
89	0xbbbfc000	-0.0058517456
90	0x3dc76000	0.097351074
91	0x3db52000	0.08843994
92	0x3c964000	0.018341064
93	0x3d792000	0.060821533
94	0x3d5ae000	0.05343628
95	0xbaf26000	-0.0018491745
96	0xbe03c000	-0.12866211
97	0xbe1c0000	-0.15234375
98	0xbd26e000	-0.040740967
99	0x3cd60000	0.026123047
100	0x3d36a000	0.04458618
101	0x3c7d8000	0.015472412
102	0x3d246000	0.040130615
103	0x3d7c2000	0.061553955
104	0x3cc32000	0.02381897
105	0x3c336000	0.010948181
106	0x3cbf6000	0.023361206
107	0x3c082000	0.008308411
108	0x3d746000	0.059661865
109	0x3c0aa000	0.008460999
110	0xbd212000	-0.03933716
111	0x3d996000	0.07489014
112	0x3d93c000	0.072143555
113	0x3a3b8000	0.00071525574
114	0x3a266000	0.00063467026
115	0x3d302000	0.042999268
116	0x3cae2000	0.021255493
117	0xbf1a4000	-0.60253906
118	0xbe662000	-0.22473145
119	0x3ee22000	0.4416504
120	0xbf8fe000	-1.1240234
121	0x3d9c0000	0.076171875
122	0x3f974000	1.1816406
123	0xbe830000	-0.25585938
124	0x3e552000	0.20812988
125	0x3e9c6000	0.30541992
126	0xbf13c000	-0.57714844
127	0xbf814000	-1.0097656
128	0xbea5e000	-0.3239746
129	0x3c1ae000	0.00945282
130	0x3d982000	0.074279785
131	0x3d810000	0.06298828
132	0x3efc8000	0.49316406
133	0x3f83a000	1.0283203
134	0x3e8fa000	0.28051758
135	0xbd1c0000	-0.038085938
136	0xbd47e000	-0.048797607
137	0xbd03a000	-0.03213501
138	0xbd4aa000	-0.049468994
139	0xbd82a000	-0.06378174
140	0xbd0fa000	-0.035064697
141	0xbcc90000	-0.024536133
142	0xbcd92000	-0.026504517
143	0xbc70c000	-0.014694214

conv2_2.bias f4 [16]
0	0x3fb2a000	1.3955078
1	0x3d152000	0.03640747
2	0x3cfa8000	0.030578613
3	0xbcfc4000	-0.030792236
4	0x3ecde000	0.4020996
5	0x3fe4a000	1.7861328
6	0xbc92a000	-0.01789856
7	0xbe822000	-0.2541504
8	0x3f7f4000	0.9970703
9	0x4040a000	3.0097656
10	0x3d550000	0.052001953
11	0xbde6a000	-0.11260986
12	0x3ec3e000	0.38256836
13	0x3e840000	0.2578125
14	0x3e778000	0.24169922
15	0x3f8c6000	1.0966797

conv2_3.weight f4 [16, 16, 1, 1]
0	0x40e32000	7.0976562
1	0x3fc64000	1.5488281
2	0x3ed84000	0.42236328
3	0x400ec000	2.2304688
4	0xc0172000	-2.3613281
5	0xc182c000	-16.34375
6	0x411b8000	9.71875
7	0x40a50000	5.15625
8	0x3f8ea000	1.1142578
9	0xc0ab4000	-5.3515625
10	0x3e9b8000	0.30371094
11	0x41018000	8.09375
12	0x3feb6000	1.8388672
13	0xbe9c8000	-0.30566406
14	0xbf1be000	-0.6088867
15	0x4002a000	2.0410156
16	0x407d6000	3.9589844
17	0x40770000	3.859375
18	0x3ff7e000	1.9365234
19	0xbe55a000	-0.20861816
20	0x3f21e000	0.6323242
21	0xbc056000	-0.008140564
22	0x3e51c000	0.20483398
23	0xc049c000	-3.1523438
24	0x40fc8000	7.890625
25	0xc12de000	-10.8671875
26	0x3e504000	0.20336914
27	0xbfc14000	-1.5097656
28	0xc0aac000	-5.3359375
29	0x3f7d4000	0.9892578
30	0x40222000	2.5332031
31	0xc01a2000	-2.4082031
32	0x40460000	3.09375
33	0xc0da4000	-6.8203125
34	0x4041c000	3.0273438
35	0x4097e000	4.7460938
36	0x40a08000	5.015625
37	0xbf9cc000	-1.2246094
38	0x3fbec000	1.4902344
39	0x4052c000	3.2929688
40	0xc0048000	-2.0703125
41	0xbf912000	-1.1337891
42	0x3f7f2000	0.99658203
43	0x405d4000	3.4570312
44	0x3f370000	0.71484375
45	0xbf008000	-0.5019531
46	0x40c84000	6.2578125
47	0xbeee2000	-0.4650879
48	0x3ffc2000	1.9697266
49	0xbfb3a000	-1.4033203
50	0x40b04000	5.5078125
51	0xbece4000	-0.40283203
52	0x3ede8000	0.4345703
53	0x3fc72000	1.5556641
54	0x3fa3a000	1.2783203
55	0xc0094000	-2.1445312
56	0x4033e000	2.8105469
57	0x40e82000	7.2539062
58	0x3f0f2000	0.55908203
59	0xbe836000	-0.2565918
60	0x3fe1e000	1.7646484
61	0xc0aca000	-5.3945312
62	0xc09a6000	-4.8242188
63	0xc0836000	-4.1054688
64	0xbf13c000	-0.57714844
65	0x40384000	2.8789062
66	0x405f8000	3.4921875
67	0xc050a000	-3.2597656
68	0xc05f6000	-3.4902344
69	0x403e8000	2.9765625
70	0x3f764000	0.96191406
71	0xc0448000	-3.0703125
72	0xbcefa000	-0.029251099
73	0x4073a000	3.8066406
74	0x40550000	3.328125
75	0xc0274000	-2.6132812
76	0xc105e000	-8.3671875
77	0x407b4000	3.9257812
78	0x408f4000	4.4765625
79	0xbfc54000	-1.5410156
80	0xc1838000	-16.4375
81	0x405a8000	3.4140625
82	0x3f416000	0.7553711
83	0xc0a0c000	-5.0234375
84	0x3f5ec000	0.8701172
85	0xbc99c000	-0.01876831
86	0x3fa6e000	1.3037109
87	0xbfa66000	-1.2998047
88	0xc034a000	-2.8222656
89	0x3fdd4000	1.7285156
90	0xbfd18000	-1.6367188
91	0x4115a000	9.3515625
92	0x3f810000	1.0078125
93	0x3f0d0000	0.55078125
94	0x3ebb8000	0.36621094
95	0x416b6000	14.7109375
96	0x412d8000	10.84375
97	0x3fb68000	1.4257812
98	0xbf95e000	-1.1708984
99	0x40d78000	6.734375
100	0x3faf8000	1.3710938
101	0xc10a8000	-8.65625
102	0x414ae000	12.6796875
103	0xbffb0000	-1.9609375
104	0xc0a0a000	-5.0195312
105	0x4042c000	3.0429688
106	0xbf098000	-0.5371094
107	0x3f216000	0.6303711
108	0x3f3f4000	0.7470703
109	0xbd56a000	-0.05239868
110	0xbea4e000	-0.32202148
111	0x3f01a000	0.50634766
112	0xc0874000	-4.2265625
113	0x4015c000	2.3398438
114	0x3f95c000	1.1699219
115	0xc0b24000	-5.5703125
116	0x4071e000	3.7792969
117	0xc0544000	-3.3164062
118	0xbd10a000	-0.035308838
119	0xbf9ac000	-1.2089844
120	0x3f5c8000	0.8613281
121	0xc04de000	-3.2167969
122	0x407dc000	3.9648438
123	0xbfc9c000	-1.5761719
124	0xbfdc2000	-1.7197266
125	0xc101e000	-8.1171875
126	0x3fc72000	1.5556641
127	0x40a98000	5.296875
128	0xbff62000	-1.9228516
129	0x401bc000	2.4335938
130	0xbd5c4000	-0.053771973
131	0x3f61e000	0.8823242
132	0xc0156000	-2.3339844
133	0xc01ac000	-2.4179688
134	0x3f44c000	0.7685547
135	0x419e4000	19.78125
136	0xbf2c8000	-0.6738281
137	0x3f178000	0.5917969
138	0xbf39e000	-0.7260742
139	0xc03ae000	-2.9199219
140	0xc0b6c000	-5.7109375
141	0xbf336000	-0.7006836
142	0x3f85e000	1.0458984
143	0x3f18e000	0.59716797
144	0xbf206000	-0.62646484
145	0x4026e000	2.6074219
146	0xbff30000	-1.8984375
147	0xbedae000	-0.42749023
148	0x409e8000	4.953125
149	0xbf7ae000	-0.97998047
150	0xbe87a000	-0.26489258
151	0x402e2000	2.7207031
152	0xbe9c4000	-0.30517578
153	0xbfe34000	-1.7753906
154	0x401ea000	2.4785156
155	0x3f8f2000	1.1181641
156	0xc0a0c000	-5.0234375
157	0x405c2000	3.4394531
158	0xc0c66000	-6.1992188
159	0x3f80e000	1.0068359
160	0xc0724000	-3.7851562
161	0x3fbc6000	1.4716797
162	0xc0b38000	-5.609375
163	0xc009e000	-2.1542969
164	0x40162000	2.3457031
165	0xc02d6000	-2.7089844
166	0xbf024000	-0.50878906
167	0x3f8d6000	1.1044922
168	0x40db2000	6.8476562
169	0x4079e000	3.9042969
170	0x40116000	2.2714844
171	0x40138000	2.3046875
172	0xbe656000	-0.22399902
173	0xbf640000	-0.890625
174	0x4093e000	4.6210938
175	0x3f3c6000	0.73583984
176	0x3e00a000	0.12561035
177	0xbfc1e000	-1.5146484
178	0x3fac8000	1.3476562
179	0x3c076000	0.008262634
180	0x3e396000	0.18103027
181	0x3c318000	0.01083374
182	0xbe150000	-0.14550781
183	0xbeef4000	-0.46728516
184	0x3f46e000	0.77685547
185	0xbf50e000	-0.81591797
186	0x40fee000	7.9648438
187	0x3d806000	0.062683105
188	0x3fcbe000	1.5927734
189	0x402fe000	2.7480469
190	0xbf80e000	-1.0068359
191	0x3f0ee000	0.55810547
192	0xbfce4000	-1.6113281
193	0x40718000	3.7734375
194	0x40a92000	5.2851562
195	0x3ef2a000	0.47387695
196	0xc0778000	-3.8671875
197	0xc0b5a000	-5.6757812
198	0x3e3ec000	0.1862793
199	0x3fc22000	1.5166016
200	0x40ae8000	5.453125
201	0x3fd8e000	1.6943359
202	0xbeca4000	-0.39501953
203	0x3e870000	0.26367188
204	0xc03e8000	-2.9765625
205	0x407d0000	3.953125
206	0xbc980000	-0.018554688
207	0x40212000	2.5175781
208	0xbe616000	-0.22009277
209	0xc03d6000	-2.9589844
210	0x3f542000	0.8286133
211	0xc108a000	-8.5390625
212	0x3d984000	0.07434082
213	0xc063a000	-3.5566406
214	0x40486000	3.1308594
215	0xbfc74000	-1.5566406
216	0xbe340000	-0.17578125
217	0xc086c000	-4.2109375
218	0xbfeb8000	-1.8398438
219	0xbed80000	-0.421875
220	0x407a6000	3.9121094
221	0x408c4000	4.3828125
222	0xbe72a000	-0.23693848
223	0x4041c000	3.0273438
224	0x40974000	4.7265625
225	0x3f4ea000	0.8071289
226	0xbf24a000	-0.6430664
227	0x402a6000	2.6621094
228	0x3fe6c000	1.8027344
229	0xc0b0a000	-5.5195312
230	0x4046e000	3.1074219
231	0xc0544000	-3.3164062
232	0x3dd8c000	0.10583496
233	0x40d5e000	6.6835938
234	0xbe6ca000	-0.2310791
235	0xc0402000	-3.0019531
236	0x402cc000	2.6992188
237	0x3fa54000	1.2910156
238	0xbeeda000	-0.46411133
239	0xc0a5e000	-5.1835938
240	0xc03a0000	-2.90625
241	0xc0e24000	-7.0703125
242	0xbf446000	-0.76708984
243	0x3ff62000	1.9228516
244	0xbedd2000	-0.43188477
245	0xbf906000	-1.1279297
246	0x40156000	2.3339844
247	0x400aa000	2.1660156
248	0x40f94000	7.7890625
249	0xbe80c000	-0.25146484
250	0xbef6e000	-0.48217773
251	0x40620000	3.53125
252	0xc0a34000	-5.1015625
253	0x3f8a0000	1.078125
254	0xbffba000	-1.9658203
255	0x40d68000	6.703125

conv2_3.bias f4 [16]
0	0x401a0000	2.40625
1	0x406f2000	3.7363281
2	0xbfc1c000	-1.5136719
3	0xc1094000	-8.578125
4	0xc062a000	-3.5410156
5	0x3f666000	0.89990234
6	0xc01bc000	-2.4335938
7	0x3fe5e000	1.7958984
8	0xc08ee000	-4.4648438
9	0xc1274000	-10.453125
10	0xc075e000	-3.8417969
11	0xc1036000	-8.2109375
12	0xc0fc8000	-7.890625
13	0x3fb00000	1.375
14	0xbfdda000	-1.7314453
15	0x3f7d0000	0.98828125

conv3_1.weight f4 [72, 16, 1, 1]
0	0xbd896000	-0.06707764
1	0x3e21a000	0.15783691
2	0xbc998000	-0.018737793
3	0x3e542000	0.20715332
4	0x3cee6000	0.02909851
5	0x3d59e000	0.05319214
6	0x3c256000	0.010093689
7	0x3e01c000	0.12670898
8	0xbce7a000	-0.028274536
9	0x3d8e2000	0.06939697
10	0xbe20c000	-0.15698242
11	0xbe0e4000	-0.13891602
12	0x3e40a000	0.18811035
13	0xbbfd8000	-0.007736206
14	0x3dcaa000	0.09893799
15	0x3e020000	0.12695312
16	0x3c61c000	0.0137786865
17	0xbd760000	-0.060058594
18	0xbe0d4000	-0.13793945
19	0xbbf08000	-0.0073394775
20	0x3d4da000	0.050201416
21	0x3cc24000	0.023712158
22	0xbc918000	-0.01776123
23	0xbda2a000	-0.07940674
24	0xbe276000	-0.16345215
25	0x3d5c6000	0.05380249
26	0xbd2be000	-0.04196167
27	0x3d938000	0.072021484
28	0x3cdfe000	0.027328491
29	0xbc146000	-0.009056091
30	0x3d652000	0.05593872
31	0x3dbc0000	0.091796875
32	0xbd3ac000	-0.04559326
33	0x3e74a000	0.2388916
34	0xbda2e000	-0.07952881
35	0x3e844000	0.25830078
36	0xbc4b4000	-0.0124053955
37	0x3d8a8000	0.06762695
38	0xba37e000	-0.00070142746
39	0xbcada000	-0.021194458
40	0xbcb8a000	-0.022537231
41	0x3e70e000	0.23522949
42	0xbda72000	-0.081604004
43	0xbdbb4000	-0.091430664
44	0x3e6ba000	0.23010254
45	0x3d9d2000	0.07672119
46	0x3d818000	0.06323242
47	0x3dca4000	0.09875488
48	0x3e1d2000	0.15344238
49	0x3e8b8000	0.27246094
50	0xbdc1a000	-0.09454346
51	0x3f88a000	1.0673828
52	0xbef92000	-0.48657227
53	0xbd19e000	-0.03756714
54	0x3d83a000	0.06427002
55	0x3f496000	0.7866211
56	0x3d9a8000	0.07543945
57	0xbf24e000	-0.64404297
58	0xbe558000	-0.2084961
59	0xbeb0c000	-0.34521484
60	0xbd502000	-0.050811768
61	0xbf07c000	-0.53027344
62	0xbefae000	-0.48999023
63	0x3d0fe000	0.035125732
64	0x3d82a000	0.06378174
65	0xbd1da000	-0.038482666
66	0x3e672000	0.22570801
67	0x3eb3a000	0.35083008
68	0xbe61c000	-0.22045898
69	0x3d8fe000	0.070251465
70	0xbc0c8000	-0.008575439
71	0x3eefa000	0.46801758
72	0x3d4bc000	0.049743652
73	0xbe226000	-0.15856934
74	0xbdb66000	-0.08905029
75	0xbe198000	-0.14990234
76	0xbdb24000	-0.08703613
77	0xbe3ce000	-0.18444824
78	0xbe0ba000	-0.13635254
79	0xbebea000	-0.37231445
80	0x3e11c000	0.14233398
81	0x3e83e000	0.25756836
82	0x3e878000	0.26464844
83	0x3e41a000	0.18908691
84	0x3e7e2000	0.24816895
85	0xbdc92000	-0.09820557
86	0xbdfb4000	-0.122680664
87	0x3dbf8000	0.09350586
88	0x3ee2e000	0.44311523
89	0x3e800000	0.25
90	0x3ef94000	0.4868164
91	0x3d6a8000	0.057250977
92	0x3d61c000	0.055114746
93	0x3e20a000	0.15686035
94	0xbead6000	-0.33862305
95	0x3f1b0000	0.60546875
96	0x3da20000	0.07910156
97	0xbe166000	-0.14685059
98	0x3d8ba000	0.06817627
99	0x3c9f0000	0.01940918
100	0xbd44a000	-0.04800415
101	0x3e84c000	0.25927734
102	0xbd31a000	-0.04336548
103	0x3c472000	0.0121536255
104	0x3d0c8000	0.034301758
105	0x3d456000	0.048187256
106	0x3d97e000	0.074157715
107	0x3cdf2000	0.027236938
108	0xbb5ca000	-0.0033664703
109	0x3d5e4000	0.054260254
110	0x3c186000	0.009300232
111	0x3d9d4000	0.07678223
112	0xbecbe000	-0.39819336
113	0x3cd8c000	0.02645874
114	0x3dd3e000	0.10345459
115	0x3d732000	0.05935669
116	0x3df4a000	0.1194458
117	0xbc91a000	-0.01777649
118	0xbeb8c000	-0.36083984
119	0xbe926000	-0.28588867
120	0x3daf0000	0.08544922
121	0x3c484000	0.01222229
122	0x3d0a4000	0.03375244
123	0xbcc36000	-0.023849487
124	0xbd4d2000	-0.050079346
125	0xbe900000	-0.28125
126	0xbeade000	-0.3395996
127	0xbafb0000	-0.001914978
128	0x3e886000	0.26635742
129	0xbeb86000	-0.36010742
130	0xbf202000	-0.6254883
131	0x3e1fc000	0.15600586
132	0xbe806000	-0.25073242
133	0x3e312000	0.17297363
134	0x3d5a6000	0.05331421
135	0xbed74000	-0.42041016
136	0xbe8a6000	-0.27026367
137	0x3f4aa000	0.7915039
138	0xbf164000	-0.58691406
139	0xbdaca000	-0.08428955
140	0xbe8f4000	-0.27978516
141	0xbdc1c000	-0.09460449
142	0xbd974000	-0.07385254
143	0x3e91e000	0.2849121
144	0x3e01c000	0.12670898
145	0xbd03a000	-0.03213501
146	0xbce48000	-0.027893066
147	0xbd7ea000	-0.062164307
148	0xbc6ac000	-0.014328003
149	0x3e0d2000	0.13781738
150	0xbc46c000	-0.012130737
151	0x3dd8c000	0.10583496
152	0x3cef0000	0.029174805
153	0x3bfde000	0.00774765
154	0xbbfa2000	-0.007633209
155	0x3bb32000	0.005466461
156	0x3d16a000	0.03677368
157	0x3df00000	0.1171875
158	0xbd5ca000	-0.053863525
159	0x3d5e6000	0.05429077
160	0x3ca80000	0.020507812
161	0x3e674000	0.22583008
162	0xbd804000	-0.06262207
163	0x3d9ca000	0.07647705
164	0x3cd10000	0.025512695
165	0xbe012000	-0.12609863
166	0xbd776000	-0.060394287
167	0x3dd04000	0.10168457
168	0x3de70000	0.11279297
169	0x3cb48000	0.022033691
170	0x3d38c000	0.04510498
171	0xbd808000	-0.06274414
172	0x3debe000	0.11517334
173	0x3d786000	0.060638428
174	0xbc10a000	-0.0088272095
175	0x3e13a000	0.14416504
176	0xbca06000	-0.019577026
177	0x3cfb2000	0.030654907
178	0x3e060000	0.13085938
179	0x3ccf0000	0.025268555
180	0xbd4ea000	-0.050445557
181	0xbc18e000	-0.0093307495
182	0x3cd8c000	0.02645874
183	0x3da20000	0.07910156
184	0x3e088000	0.13330078
185	0xbcd4e000	-0.025985718
186	0x3d36c000	0.0446167
187	0xbd8ea000	-0.06964111
188	0xbd1de000	-0.0385437
189	0x3cdc0000	0.026855469
190	0xbd4a2000	-0.049346924
191	0xbd6b8000	-0.057495117
192	0xbeb70000	-0.35742188
193	0x3ddc4000	0.107543945
194	0x3e368000	0.17822266
195	0x3e2f8000	0.17138672
196	0xbe398000	-0.18115234
197	0xbeaac000	-0.3334961
198	0xbd924000	-0.07141113
199	0xbea62000	-0.3244629
200	0x3e198000	0.14990234
201	0x3e4a4000	0.19750977
202	0xbcf42000	-0.029800415
203	0x3e554000	0.20825195
204	0xbbadc000	-0.005302429
205	0xbe9f2000	-0.31079102
206	0x3e06a000	0.13146973
207	0x3d5e6000	0.05429077
208	0x3e74e000	0.23913574
209	0xbe982000	-0.29711914
210	0x3dc82000	0.097717285
211	0x3cb06000	0.021530151
212	0x3f1bc000	0.60839844
213	0xbe46c000	-0.1940918
214	0x3df9e000	0.12200928
215	0x3f4c8000	0.7988281
216	0xbd040000	-0.032226562
217	0x3f194000	0.5986328
218	0x3ea9e000	0.3317871
219	0x405c6000	3.4433594
220	0xbf43e000	-0.7651367
221	0xbf1b2000	-0.60595703
222	0xbdf48000	-0.119384766
223	0xbe01c000	-0.12670898
224	0xbdcdc000	-0.10046387
225	0x3dc58000	0.09643555
226	0xbe164000	-0.14672852
227	0xbd38a000	-0.045074463
228	0x3b3a4000	0.0028419495
229	0x3d4e4000	0.050354004
230	0xbc17c000	-0.009262085
231	0x3dcb8000	0.099365234
232	0xbe40e000	-0.18835449
233	0xbdce8000	-0.10083008
234	0xbd0b4000	-0.033996582
235	0x3c494000	0.012283325
236	0x3caa0000	0.020751953
237	0x3ddec000	0.10876465
238	0xbcea4000	-0.02859497
239	0xbdd8e000	-0.105895996
240	0xbda00000	-0.078125
241	0xbd6ca000	-0.057769775
242	0x3d874000	0.06604004
243	0x3cf3a000	0.02973938
244	0x3de56000	0.11199951
245	0x3c844000	0.016143799
246	0x3d3de000	0.0463562
247	0x3d58a000	0.052886963
248	0x3eeda000	0.46411133
249	0xbdca4000	-0.09875488
250	0x3c412000	0.011787415
251	0x3c1d4000	0.009597778
252	0x3eb1e000	0.3474121
253	0x3db2e000	0.08734131
254	0x3dbd2000	0.09234619
255	0xbe7ec000	-0.2487793

conv3_1.bias f4 [72]
0	0x40746000	3.8183594
1	0x40716000	3.7714844
2	0x40c8e000	6.2773438
3	0xc0e32000	-7.0976562
4	0xbf802000	-1.0009766
5	0x40d9e000	6.8085938
6	0x4032e000	2.7949219
7	0x3f87c000	1.0605469
8	0x40f10000	7.53125
9	0x4020a000	2.5097656
10	0x40772000	3.8613281
11	0x3ffd2000	1.9775391
12	0x40bce000	5.9023438
13	0x41f18000	30.1875
14	0x3ff66000	1.9248047
15	0x407ce000	3.9511719
16	0xc0d8a000	-6.7695312
17	0x4068e000	3.6386719
18	0x4053a000	3.3066406
19	0x40380000	2.875
20	0x40196000	2.3964844
21	0x40474000	3.1132812
22	0xc1002000	-8.0078125
23	0x3fa84000	1.3144531
24	0x4048e000	3.1386719
25	0xbe176000	-0.14782715
26	0xbe838000	-0.25683594
27	0x40bb0000	5.84375
28	0xbce10000	-0.02746582
29	0x40032000	2.0488281
30	0x402a2000	2.6582031
31	0x3ffd4000	1.9785156
32	0x4055e000	3.3417969
33	0x40172000	2.3613281
34	0xbeb54000	-0.3540039
35	0xc18dc000	-17.71875
36	0x40654000	3.5820312
37	0x4004a000	2.0722656
38	0x4032a000	2.7910156
39	0x412e2000	10.8828125
40	0x40b02000	5.5039062
41	0x400a0000	2.15625
42	0x40100000	2.25
43	0x40486000	3.1308594
44	0x3f518000	0.8183594
45	0x40102000	2.2519531
46	0xbfe7c000	-1.8105469
47	0x401c0000	2.4375
48	0x40050000	2.078125
49	0x40468000	3.1015625
50	0x403c0000	2.9375
51	0x41160000	9.375
52	0xbfe2c000	-1.7714844
53	0x40af8000	5.484375
54	0x3f94e000	1.1630859
55	0xc0b62000	-5.6914062
56	0xbf9f2000	-1.2431641
57	0x403b6000	2.9277344
58	0x407c6000	3.9433594
59	0x40bd8000	5.921875
60	0x40ae4000	5.4453125
61	0xbe35e000	-0.1776123
62	0x402ee000	2.7324219
63	0xc1854000	-16.65625
64	0x402a2000	2.6582031
65	0xbee22000	-0.4416504
66	0x3fe5a000	1.7939453
67	0xbe962000	-0.2932129
68	0x400cc000	2.1992188
69	0xc11d8000	-9.84375
70	0x40024000	2.0351562
71	0xc1064000	-8.390625

conv3_2.weight f4 [72, 1, 3, 3]
0	0x3fa9a000	1.3251953
1	0xc019e000	-2.4042969
2	0x3f872000	1.0556641
3	0xbf93c000	-1.1542969
4	0x401a8000	2.4140625
5	0xbf920000	-1.140625
6	0xbda10000	-0.07861328
7	0xbcdec000	-0.027191162
8	0x3de6a000	0.11260986
9	0xbee24000	-0.44189453
10	0x40286000	2.6308594
11	0xc0020000	-2.03125
12	0x3f226000	0.63427734
13	0xc05b0000	-3.421875
14	0x40256000	2.5839844
15	0xbd350000	-0.044189453
16	0x3f2f0000	0.68359375
17	0xbee7e000	-0.45288086
18	0xbf1de000	-0.6166992
19	0xbf408000	-0.7519531
20	0xbddee000	-0.10882568
21	0x3f8ba000	1.0908203
22	0x3fc6a000	1.5517578
23	0x3f046000	0.51708984
24	0xbf100000	-0.5625
25	0xbf5c6000	-0.86083984
26	0xbeb14000	-0.3461914
27	0xbee1a000	-0.44067383
28	0xbefb2000	-0.49047852
29	0xbdd4a000	-0.1038208
30	0xbf02e000	-0.51123047
31	0xbee1c000	-0.44091797
32	0xbe3a2000	-0.1817627
33	0xbe50c000	-0.20385742
34	0xbe23c000	-0.15991211
35	0x3c090000	0.008361816
36	0xbf0c6000	-0.54833984
37	0xbe332000	-0.17492676
38	0x3f0a8000	0.5410156
39	0xbf488000	-0.7832031
40	0x3cdac000	0.02670288
41	0x3f44a000	0.7680664
42	0xbecf8000	-0.40527344
43	0x3e250000	0.16113281
44	0x3e788000	0.24267578
45	0xbdf3c000	-0.119018555
46	0xbe3a8000	-0.1821289
47	0xbd8d4000	-0.06896973
48	0xbdd02000	-0.101623535
49	0xbdfda000	-0.12384033
50	0xbd2b2000	-0.041778564
51	0xbd596000	-0.05307007
52	0xbe0b8000	-0.13623047
53	0xbd640000	-0.055664062
54	0xbe8d0000	-0.27539062
55	0x3fe3a000	1.7783203
56	0x3fd64000	1.6738281
57	0xbfc50000	-1.5390625
58	0xc0786000	-3.8808594
59	0xbeaa8000	-0.3330078
60	0x4013c000	2.3085938
61	0x3f3f0000	0.74609375
62	0xbf18e000	-0.59716797
63	0xbc6d6000	-0.01448822
64	0xbea40000	-0.3203125
65	0xbde60000	-0.11230469
66	0xbe03e000	-0.12878418
67	0xbea62000	-0.3244629
68	0xbe24a000	-0.1607666
69	0x3ca60000	0.020263672
70	0xbcb1e000	-0.021713257
71	0x3c8f8000	0.01751709
72	0x3d15c000	0.03656006
73	0x3d8f0000	0.06982422
74	0x3db62000	0.08892822
75	0x3e63a000	0.22229004
76	0x3e89a000	0.26879883
77	0x3e10e000	0.14147949
78	0x3e72e000	0.23718262
79	0x3e63a000	0.22229004
80	0x3d372000	0.044708252
81	0xc006c000	-2.1054688
82	0x3eaac000	0.3334961
83	0x3fe7c000	1.8105469
84	0xc0468000	-3.1015625
85	0x3e704000	0.23461914
86	0x40328000	2.7890625
87	0xbf208000	-0.6269531
88	0xbda8e000	-0.082458496
89	0x3f126000	0.57177734
90	0x3f618000	0.8808594
91	0xbfe30000	-1.7734375
92	0x3f3b4000	0.7314453
93	0x3fe30000	1.7734375
94	0xc03a0000	-2.90625
95	0x3fc7c000	1.5605469
96	0x3f4fc000	0.81152344
97	0xbfc3c000	-1.5292969
98	0x3f334000	0.7001953
99	0xbf95e000	-1.1708984
100	0x3f780000	0.96875
101	0x3e8b4000	0.27197266
102	0x40678000	3.6171875
103	0xc0608000	-3.5078125
104	0xbe658000	-0.2241211
105	0xc01e6000	-2.4746094
106	0x401e4000	2.4726562
107	0xbc06e000	-0.008232117
108	0xbdcee000	-0.10101318
109	0xbd470000	-0.048583984
110	0xbdfa8000	-0.12231445
111	0xbde54000	-0.11193848
112	0xbd99e000	-0.07513428
113	0xbdad0000	-0.084472656
114	0xbe18a000	-0.14904785
115	0xbe6b2000	-0.22961426
116	0xbcfda000	-0.030960083
117	0xbd68c000	-0.05682373
118	0xbe0d6000	-0.13806152
119	0xbd90a000	-0.070617676
120	0xbe0ba000	-0.13635254
121	0xbe32e000	-0.17468262
122	0xbdc08000	-0.09399414
123	0xbd48a000	-0.048980713
124	0xbdb92000	-0.09039307
125	0xbd3b0000	-0.045654297
126	0xbf9b2000	-1.2119141
127	0xbd6d2000	-0.057891846
128	0x3faca000	1.3486328
129	0xbff6a000	-1.9267578
130	0xbe58e000	-0.21179199
131	0x3ffae000	1.9599609
132	0xbf080000	-0.53125
133	0xbe7de000	-0.2479248
134	0x3f410000	0.75390625
135	0xbf21a000	-0.63134766
136	0x3ea74000	0.32666016
137	0xbc468000	-0.0121154785
138	0x3ea02000	0.31274414
139	0x3f7d8000	0.9902344
140	0xbdcd8000	-0.1003418
141	0x3e2b4000	0.16723633
142	0xbe744000	-0.23852539
143	0xbf74e000	-0.95654297
144	0x3e08e000	0.13366699
145	0x3ea8c000	0.32958984
146	0x3e20e000	0.15710449
147	0x3ef6e000	0.48217773
148	0x3ee68000	0.4501953
149	0xbc57a000	-0.013160706
150	0xbf0a2000	-0.5395508
151	0xbf6be000	-0.9213867
152	0xbde96000	-0.11395264
153	0x3f252000	0.64501953
154	0xbf8d0000	-1.1015625
155	0x3eff6000	0.4987793
156	0x3f9fa000	1.2470703
157	0xc0082000	-2.1269531
158	0x3f8ce000	1.1005859
159	0x3eb86000	0.36010742
160	0xbf834000	-1.0253906
161	0x3f1b2000	0.60595703
162	0xbedc0000	-0.4296875
163	0xbf890000	-1.0703125
164	0x3f4de000	0.8041992
165	0xbf0f4000	-0.5595703
166	0xbf58e000	-0.84716797
167	0x3fd4e000	1.6630859
168	0xbea96000	-0.33081055
169	0x3db20000	0.08691406
170	0x3ecac000	0.3959961
171	0xbfb3c000	-1.4042969
172	0xc04e4000	-3.2226562
173	0x3e360000	0.17773438
174	0x3f910000	1.1328125
175	0xbf8dc000	-1.1074219
176	0xbf4c8000	-0.7988281
177	0x401f8000	2.4921875
178	0x4016e000	2.3574219
179	0x3ef0a000	0.4699707
180	0xbf85e000	-1.0458984
181	0xc0362000	-2.8457031
182	0xbec8a000	-0.3918457
183	0x3f8ec000	1.1152344
184	0xbf8c8000	-1.0976562
185	0xbed08000	-0.40722656
186	0x401e2000	2.4707031
187	0x3fe0a000	1.7548828
188	0x3f0ba000	0.54541016
189	0xbfb00000	-1.375
190	0x3fe14000	1.7597656
191	0xbee3e000	-0.44506836
192	0x3ff84000	1.9394531
193	0xc01ae000	-2.4199219
194	0x3f006000	0.50146484
195	0xbeeba000	-0.46020508
196	0x3f1a6000	0.60302734
197	0xbdc16000	-0.09442139
198	0xbe6e8000	-0.23291016
199	0xbe926000	-0.28588867
200	0xbe10e000	-0.14147949
201	0xbea8c000	-0.32958984
202	0xbe84e000	-0.25952148
203	0xbc978000	-0.018493652
204	0xbe1e2000	-0.15441895
205	0xbd152000	-0.03640747
206	0x3d3f2000	0.046661377
207	0xbda00000	-0.078125
208	0xbe214000	-0.1574707
209	0x3b90c000	0.0044174194
210	0xbde10000	-0.10986328
211	0xbe144000	-0.14477539
212	0x3cbe2000	0.023208618
213	0x3ca3e000	0.020004272
214	0xbc0b0000	-0.008483887
215	0x3d8e6000	0.06951904
216	0xbfc88000	-1.5664062
217	0xbe400000	-0.1875
218	0x4005c000	2.0898438
219	0xc02e8000	-2.7265625
220	0xbf5c6000	-0.86083984
221	0x404ca000	3.1972656
222	0xbed4a000	-0.4152832
223	0xbebf0000	-0.37304688
224	0x3f49a000	0.78759766
225	0xbfbaa000	-1.4580078
226	0xbf1c4000	-0.61035156
227	0xbe228000	-0.1586914
228	0xbf630000	-0.88671875
229	0x3f9fa000	1.2470703
230	0x3f27e000	0.6557617
231	0x3d49e000	0.04928589
232	0x3f906000	1.1279297
233	0x3ebfc000	0.37451172
234	0xbdfdc000	-0.12390137
235	0xbe388000	-0.18017578
236	0x3dc74000	0.09729004
237	0xbe094000	-0.1340332
238	0xbebf4000	-0.37353516
239	0x3d74a000	0.0597229
240	0x3d282000	0.041046143
241	0xbd12c000	-0.035827637
242	0x3db32000	0.08746338
243	0xbcdb6000	-0.026779175
244	0xbd97c000	-0.07409668
245	0xbd390000	-0.045166016
246	0xbd04a000	-0.03237915
247	0xbe02c000	-0.12768555
248	0xbd7c0000	-0.061523438
249	0x3c48a000	0.012245178
250	0xbd93e000	-0.07220459
251	0xbca9c000	-0.020721436
252	0xbf98c000	-1.1933594
253	0xbfcf2000	-1.6181641
254	0xbf46a000	-0.7758789
255	0x3f922000	1.1416016

conv3_2.bias f4 [72]
0	0xbe2f2000	-0.17102051
1	0xbe9e8000	-0.3095703
2	0x3d8f6000	0.070007324
3	0x40494000	3.1445312
4	0x3ea5c000	0.32373047
5	0x40586000	3.3808594
6	0xbdabe000	-0.08392334
7	0x4072c000	3.7929688
8	0x3e2d6000	0.16931152
9	0x3ee18000	0.4404297
10	0xbefde000	-0.4958496
11	0xbd406000	-0.046966553
12	0x40396000	2.8964844
13	0x408ce000	4.4023438
14	0x3e85e000	0.2614746
15	0x3d8c6000	0.06854248
16	0x3b8f6000	0.0043754578
17	0xbf26e000	-0.65185547
18	0x3f222000	0.6333008
19	0xbe54a000	-0.2076416
20	0xbdf34000	-0.118774414
21	0x3dd32000	0.10308838
22	0x40ef6000	7.4804688
23	0x40a94000	5.2890625
24	0x3ce30000	0.027709961
25	0xbf1bc000	-0.60839844
26	0x40622000	3.5332031
27	0x4052a000	3.2910156
28	0x3e8a0000	0.26953125
29	0xbcf04000	-0.029327393
30	0xbf2b6000	-0.6694336
31	0x4048c000	3.1367188
32	0x3c432000	0.011909485
33	0xbb950000	-0.004547119
34	0xbdce8000	-0.10083008
35	0x403ca000	2.9472656
36	0xbee12000	-0.43969727
37	0xbd464000	-0.04840088
38	0x3cb18000	0.02166748
39	0x40a36000	5.1054688
40	0x3fcf6000	1.6201172
41	0xbeeda000	-0.46411133
42	0x3d93a000	0.07208252
43	0xbdc82000	-0.097717285
44	0x3f7fa000	0.99853516
45	0x3e744000	0.23852539
46	0x3edd6000	0.43237305
47	0xbd5c4000	-0.053771973
48	0xbf2fc000	-0.68652344
49	0xbe666000	-0.22497559
50	0x40b88000	5.765625
51	0x40c8c000	6.2734375
52	0x40356000	2.8339844
53	0xbd890000	-0.06689453
54	0x40a90000	5.28125
55	0x40762000	3.8457031
56	0xbf9ce000	-1.2255859
57	0x3e4d0000	0.20019531
58	0x3e3a8000	0.1821289
59	0x3eba6000	0.36401367
60	0x3e444000	0.19165039
61	0x40cfc000	6.4921875
62	0xbda14000	-0.07873535
63	0x4009a000	2.1503906
64	0xbf090000	-0.53515625
65	0xbe212000	-0.15734863
66	0xbe652000	-0.22375488
67	0x41202000	10.0078125
68	0x40450000	3.078125
69	0x3e4ae000	0.19812012
70	0x3d214000	0.039367676
71	0x40b10000	5.53125

conv3_3.weight f4 [24, 72, 1, 1]
0	0xbe238000	-0.15966797
1	0xbe380000	-0.1796875
2	0xbdab8000	-0.083740234
3	0xbeb08000	-0.34472656
4	0x3df4a000	0.1194458
5	0xbde00000	-0.109375
6	0x3e204000	0.15649414
7	0xbe686000	-0.22692871
8	0x3b44a000	0.0030002594
9	0xbe0d6000	-0.13806152
10	0x3d8f0000	0.06982422
11	0xbe3cc000	-0.18432617
12	0xbd602000	-0.054718018
13	0x3e116000	0.14196777
14	0x3d072000	0.032989502
15	0xbca34000	-0.019927979
16	0xbdcca000	-0.09991455
17	0x3e11e000	0.14245605
18	0x3d130000	0.035888672
19	0x3d8a8000	0.06762695
20	0x3deea000	0.11651611
21	0xbe362000	-0.17785645
22	0xbdafe000	-0.085876465
23	0xbe08e000	-0.13366699
24	0xbb8a2000	-0.0042152405
25	0xbe010000	-0.12597656
26	0x3dd0a000	0.101867676
27	0x3da58000	0.08081055
28	0xbcd6e000	-0.026229858
29	0x3cd38000	0.025817871
30	0xbcaa2000	-0.020767212
31	0x3d180000	0.037109375
32	0xbe2f2000	-0.17102051
33	0xbe036000	-0.1282959
34	0xbdf80000	-0.12109375
35	0x3e8e2000	0.2775879
36	0xbdbfe000	-0.093688965
37	0x3e2e6000	0.17028809
38	0xbdffc000	-0.12487793
39	0xbb4b6000	-0.0031032562
40	0xbdfc0000	-0.123046875
41	0xbdbfe000	-0.093688965
42	0xbc252000	-0.01007843
43	0xbcfc6000	-0.030807495
44	0xbc144000	-0.009048462
45	0x3ce64000	0.02810669
46	0xbd8c2000	-0.06842041
47	0xbe2ae000	-0.16687012
48	0x3c32e000	0.010917664
49	0x3d484000	0.04888916
50	0xbd892000	-0.06695557
51	0x3d1e0000	0.03857422
52	0xbca88000	-0.020568848
53	0xbde8e000	-0.113708496
54	0x3ddae000	0.10687256
55	0xbe3ba000	-0.18322754
56	0xbdcc0000	-0.099609375
57	0xbd5ea000	-0.054351807
58	0xbdcbe000	-0.09954834
59	0x3dee8000	0.11645508
60	0x3e2cc000	0.16870117
61	0x3e44a000	0.1920166
62	0xbe3be000	-0.18347168
63	0x3d03a000	0.03213501
64	0xbba98000	-0.0051727295
65	0x3d8f2000	0.069885254
66	0xbe136000	-0.1439209
67	0xbe724000	-0.23657227
68	0x3baf8000	0.005355835
69	0xbdeae000	-0.11468506
70	0xbdb36000	-0.08758545
71	0x3ceba000	0.028762817
72	0x3d958000	0.07299805
73	0xbd0e6000	-0.03475952
74	0x3e4fa000	0.20275879
75	0x3d2be000	0.04196167
76	0x3de86000	0.113464355
77	0xbddee000	-0.10882568
78	0x3dc14000	0.09436035
79	0xbd952000	-0.07281494
80	0xbda94000	-0.0826416
81	0x3e182000	0.14855957
82	0xbdeea000	-0.11651611
83	0xbc956000	-0.018234253
84	0xbe424000	-0.18969727
85	0xbe914000	-0.2836914
86	0x3e238000	0.15966797
87	0x3dd76000	0.105163574
88	0x3e01a000	0.12658691
89	0xbe440000	-0.19140625
90	0x3dd46000	0.10369873
91	0xbd92c000	-0.07165527
92	0x3d02e000	0.031951904
93	0x3d80e000	0.062927246
94	0x3ce4c000	0.027923584
95	0x3e6b0000	0.22949219
96	0x3e05e000	0.1307373
97	0xbc652000	-0.01398468
98	0x3d1d2000	0.038360596
99	0x3ed1e000	0.4099121
100	0x3e4c2000	0.19934082
101	0xb98e6000	-0.00027155876
102	0xbb930000	-0.004486084
103	0xbd67e000	-0.056610107
104	0xbd280000	-0.041015625
105	0x3dbca000	0.09210205
106	0xbc242000	-0.010017395
107	0x3e10a000	0.14123535
108	0x3d81a000	0.06329346
109	0xbd806000	-0.062683105
110	0x3bcac000	0.006187439
111	0xbed8c000	-0.42333984
112	0x3e284000	0.16430664
113	0x3d1cc000	0.038269043
114	0x3e3a2000	0.1817627
115	0x3de6a000	0.11260986
116	0xbe748000	-0.23876953
117	0x3e4d0000	0.20019531
118	0xbe26a000	-0.16271973
119	0x3da0c000	0.07849121
120	0x3d99c000	0.07507324
121	0xbe2e6000	-0.17028809
122	0x3c870000	0.016479492
123	0xbe526000	-0.20544434
124	0x3d14e000	0.036346436
125	0x3e61e000	0.22058105
126	0xbe7f0000	-0.24902344
127	0x3e2e8000	0.17041016
128	0xbe524000	-0.20532227
129	0xbe338000	-0.17529297
130	0x3e3f4000	0.18676758
131	0xbe1c4000	-0.15258789
132	0x3d300000	0.04296875
133	0x3daf4000	0.08557129
134	0x3d0b0000	0.033935547
135	0xbd40a000	-0.047027588
136	0x3e916000	0.28393555
137	0xbdd3e000	-0.10345459
138	0x3cf80000	0.030273438
139	0xbdd8a000	-0.105773926
140	0xbe792000	-0.24328613
141	0x3df34000	0.118774414
142	0xbda96000	-0.08270264
143	0x3e868000	0.2626953
144	0xbe396000	-0.18103027
145	0xbde9a000	-0.11407471
146	0xbd886000	-0.066589355
147	0x3c0f0000	0.008728027
148	0xbbece000	-0.0072288513
149	0x3e1ac000	0.15112305
150	0xbe442000	-0.19152832
151	0x3dc8e000	0.098083496
152	0xbdf8c000	-0.12145996
153	0xbca76000	-0.020431519
154	0x3dc42000	0.09576416
155	0xbdbc8000	-0.092041016
156	0xbdc78000	-0.09741211
157	0xbd71c000	-0.059020996
158	0xbd72c000	-0.059265137
159	0xbcf4e000	-0.029891968
160	0x3d1ec000	0.038757324
161	0x3ddc4000	0.107543945
162	0x3cf78000	0.030212402
163	0x3db60000	0.08886719
164	0xbdcd0000	-0.100097656
165	0xbe5d2000	-0.21594238
166	0xbd472000	-0.048614502
167	0xbe58c000	-0.21166992
168	0xbb964000	-0.004585266
169	0xbcd48000	-0.025939941
170	0xbeaec000	-0.3413086
171	0x3d92a000	0.07159424
172	0xbe06c000	-0.1315918
173	0x3d382000	0.044952393
174	0x3c622000	0.013801575
175	0xbd83c000	-0.064331055
176	0x3def4000	0.11682129
177	0x3e562000	0.20910645
178	0xbc608000	-0.013702393
179	0xbd170000	-0.036865234
180	0x3c658000	0.014007568
181	0x3df6c000	0.1204834
182	0x3d602000	0.054718018
183	0xbdaf2000	-0.085510254
184	0xbdfca000	-0.12335205
185	0x3eb40000	0.3515625
186	0xbe690000	-0.22753906
187	0xbd1cc000	-0.038269043
188	0x3d7a4000	0.06109619
189	0x3c8ec000	0.017425537
190	0x3e240000	0.16015625
191	0xbe460000	-0.19335938
192	0x3e82a000	0.25512695
193	0x3d3fe000	0.046844482
194	0xbe1e8000	-0.15478516
195	0xbe80a000	-0.2512207
196	0x3e0be000	0.13659668
197	0xbe2e6000	-0.17028809
198	0x3d422000	0.0473938
199	0xbde9c000	-0.11413574
200	0xbd248000	-0.040161133
201	0x3e3ee000	0.18640137
202	0xbdbf2000	-0.093322754
203	0x3e006000	0.12536621
204	0xbe1bc000	-0.15209961
205	0xbdc96000	-0.09832764
206	0xbdd80000	-0.10546875
207	0xbd2b2000	-0.041778564
208	0xbd9ee000	-0.07757568
209	0x3e8ec000	0.2788086
210	0x3e1fc000	0.15600586
211	0x3d948000	0.072509766
212	0xbe2e8000	-0.17041016
213	0xbcdc6000	-0.026901245
214	0xbcf4a000	-0.02986145
215	0x3dfc6000	0.12322998
216	0x3eaea000	0.34106445
217	0x3e912000	0.28344727
218	0xbe8d8000	-0.2763672
219	0xbe35e000	-0.1776123
220	0x3d992000	0.07476807
221	0xbe040000	-0.12890625
222	0xbd8a2000	-0.06744385
223	0xbc582000	-0.013191223
224	0xbd924000	-0.07141113
225	0x3db5e000	0.08880615
226	0xbd9a4000	-0.07531738
227	0x3e8ea000	0.27856445
228	0xbe0a4000	-0.13500977
229	0x3e4fa000	0.20275879
230	0xbe196000	-0.14978027
231	0x3dc12000	0.09429932
232	0xbe34e000	-0.17663574
233	0xbc42c000	-0.011886597
234	0xbe11c000	-0.14233398
235	0xbc19e000	-0.009391785
236	0xbe574000	-0.21020508
237	0x3ea56000	0.32299805
238	0xbe59a000	-0.21252441
239	0xbe0ee000	-0.13952637
240	0x3da86000	0.082214355
241	0x3daea000	0.08526611
242	0x3d956000	0.07293701
243	0xbc7c6000	-0.015403748
244	0xbeb68000	-0.3564453
245	0xbd8be000	-0.06829834
246	0xbe670000	-0.22558594
247	0x3d6b4000	0.057434082
248	0xbc89e000	-0.016830444
249	0xbd4ca000	-0.049957275
250	0x3eb8a000	0.3605957
251	0xbe380000	-0.1796875
252	0x3e5ac000	0.21362305
253	0x3c4aa000	0.012367249
254	0xbe16c000	-0.1472168
255	0x3c282000	0.010261536

conv3_3.bias f4 [24]
0	0x4030e000	2.7636719
1	0x3f424000	0.75878906
2	0x40808000	4.015625
3	0xbf790000	-0.97265625
4	0x4017c000	2.3710938
5	0x408c4000	4.3828125
6	0xbf340000	-0.703125
7	0x40b06000	5.5117188
8	0xc093a000	-4.6132812
9	0x404da000	3.2128906
10	0x408c2000	4.3789062
11	0x3fa40000	1.28125
12	0x4074e000	3.8261719
13	0xc053a000	-3.3066406
14	0xbdd3e000	-0.10345459
15	0x3ff9c000	1.9511719
16	0x3f370000	0.71484375
17	0xc09da000	-4.9257812
18	0xc03a2000	-2.9082031
19	0xbec9a000	-0.39379883
20	0xc03e4000	-2.9726562
21	0xbe890000	-0.26757812
22	0x4043e000	3.0605469
23	0xbfbea000	-1.4892578

conv4_1.weight f4 [88, 24, 1, 1]
0	0x3e492000	0.19641113
1	0x3e844000	0.25830078
2	0xbf42a000	-0.7602539
3	0xbe6f0000	-0.23339844
4	0xbe7fe000	-0.24987793
5	0xbf07c000	-0.53027344
6	0x3f648000	0.8925781
7	0xbf252000	-0.64501953
8	0xbe098000	-0.13427734
9	0xbea0c000	-0.31396484
10	0xbe294000	-0.1652832
11	0xbfc76000	-1.5576172
12	0xbf466000	-0.77490234
13	0x3ef42000	0.47680664
14	0xbe44a000	-0.1920166
15	0x3d992000	0.07476807
16	0x3f1a6000	0.60302734
17	0x3e776000	0.24157715
18	0x3f2aa000	0.6665039
19	0x3ec86000	0.39135742
20	0xbeac0000	-0.3359375
21	0xbec52000	-0.38500977
22	0xbe014000	-0.1262207
23	0xbeffa000	-0.49926758
24	0xba60c000	-0.0008573532
25	0xbc4ce000	-0.012504578
26	0x3dc7c000	0.09753418
27	0xbdfdc000	-0.12390137
28	0xbe1e2000	-0.15441895
29	0x3d326000	0.043548584
30	0x3d98c000	0.07458496
31	0x3d214000	0.039367676
32	0xbed68000	-0.4189453
33	0x3f1c6000	0.61083984
34	0x3da8c000	0.08239746
35	0xbe3b8000	-0.18310547
36	0x3c8aa000	0.016921997
37	0x3cfea000	0.031082153
38	0x3e5f6000	0.21813965
39	0x3dd42000	0.10357666
40	0x3e0d0000	0.13769531
41	0xbe17a000	-0.14807129
42	0xbdb02000	-0.085998535
43	0xbd4fa000	-0.050689697
44	0xbd870000	-0.06591797
45	0x3c14e000	0.009086609
46	0xbe72e000	-0.23718262
47	0xbce2a000	-0.027664185
48	0x3f70e000	0.94091797
49	0xbf376000	-0.7163086
50	0x3e926000	0.28588867
51	0x3e168000	0.14697266
52	0xbf426000	-0.75927734
53	0x3e6f6000	0.23376465
54	0xbe638000	-0.22216797
55	0xbfa10000	-1.2578125
56	0xbfd78000	-1.6835938
57	0x3efe4000	0.49658203
58	0x3ecd2000	0.40063477
59	0xbf18c000	-0.5966797
60	0xbf276000	-0.6538086
61	0x3ff26000	1.8935547
62	0x3f1a2000	0.6020508
63	0x3f9f2000	1.2431641
64	0x3f00c000	0.5029297
65	0xbf35e000	-0.7104492
66	0x3f570000	0.83984375
67	0xbe9c4000	-0.30517578
68	0xbed66000	-0.41870117
69	0x3f56e000	0.83935547
70	0xbf67a000	-0.90478516
71	0xbce02000	-0.027359009
72	0x3e2e8000	0.17041016
73	0xbd9f0000	-0.07763672
74	0x3c98a000	0.018630981
75	0x3d680000	0.056640625
76	0x3df4a000	0.1194458
77	0xbde6a000	-0.11260986
78	0x3e3de000	0.1854248
79	0xbdfa4000	-0.12219238
80	0x3d40e000	0.047088623
81	0xbf0fc000	-0.56152344
82	0x3cec6000	0.02885437
83	0x3e004000	0.12524414
84	0x3ca78000	0.020446777
85	0xbdb22000	-0.0869751
86	0xbeb28000	-0.3486328
87	0xbe242000	-0.16027832
88	0x3e558000	0.2084961
89	0xbc15a000	-0.009132385
90	0x3bf84000	0.007575989
91	0x3d892000	0.06695557
92	0x3e04a000	0.1295166
93	0xbc1d4000	-0.009597778
94	0x3ca62000	0.02027893
95	0x3e912000	0.28344727
96	0xbcea8000	-0.028625488
97	0x3da0c000	0.07849121
98	0x3e400000	0.1875
99	0x3d3f0000	0.04663086
100	0x3db06000	0.086120605
101	0xbd208000	-0.03918457
102	0xbc43a000	-0.011940002
103	0x3e014000	0.1262207
104	0x3d92c000	0.07165527
105	0x3e354000	0.17700195
106	0xbdec0000	-0.115234375
107	0xbcf4e000	-0.029891968
108	0x3d00e000	0.031463623
109	0x3e002000	0.12512207
110	0x3e38e000	0.18054199
111	0x3d110000	0.03540039
112	0xbe23e000	-0.16003418
113	0x3e1b4000	0.15161133
114	0x3c136000	0.008995056
115	0x3dc36000	0.09539795
116	0x3d828000	0.0637207
117	0x3c28e000	0.010307312
118	0x3e10a000	0.14123535
119	0xbc9d4000	-0.019195557
120	0x3f67c000	0.90527344
121	0xbe85a000	-0.26098633
122	0x3f084000	0.53222656
123	0x3e5d4000	0.21606445
124	0xbedce000	-0.43139648
125	0x3f9e2000	1.2353516
126	0x3dd44000	0.103637695
127	0x3f7d6000	0.9897461
128	0xbe938000	-0.28808594
129	0x3e898000	0.2685547
130	0xbc400000	-0.01171875
131	0x3f752000	0.95751953
132	0x3d65a000	0.05606079
133	0xbe6dc000	-0.23217773
134	0xbe254000	-0.16137695
135	0x3e2ae000	0.16687012
136	0xbf2e2000	-0.6801758
137	0xbf01c000	-0.50683594
138	0xbe6cc000	-0.23120117
139	0xbd050000	-0.032470703
140	0xbeaca000	-0.3371582
141	0x3e0ce000	0.13757324
142	0xbeec0000	-0.4609375
143	0xbe656000	-0.22399902
144	0x3e91a000	0.28442383
145	0xbe238000	-0.15966797
146	0xbd18a000	-0.037261963
147	0x3e358000	0.1772461
148	0x3e4fe000	0.20300293
149	0xbe822000	-0.2541504
150	0xbe4ac000	-0.19799805
151	0x3dc52000	0.09625244
152	0x3ed3c000	0.41357422
153	0xbeaf0000	-0.34179688
154	0x3e10a000	0.14123535
155	0x3dbb4000	0.091430664
156	0x3dd1e000	0.10247803
157	0xbd950000	-0.072753906
158	0xbe1c4000	-0.15258789
159	0x3d59e000	0.05319214
160	0x3e3e8000	0.18603516
161	0xbdfe2000	-0.12408447
162	0x3e2b4000	0.16723633
163	0xbd422000	-0.0473938
164	0xbe174000	-0.14770508
165	0xbdfd8000	-0.1237793
166	0x3d19c000	0.03753662
167	0xbd54a000	-0.0519104
168	0x3db72000	0.089416504
169	0x3d492000	0.049102783
170	0x3def4000	0.11682129
171	0xbeea4000	-0.45751953
172	0xbe5cc000	-0.21557617
173	0x3d9de000	0.0770874
174	0x3d6a0000	0.057128906
175	0xbd8fc000	-0.07019043
176	0x3e440000	0.19140625
177	0xbdf96000	-0.12176514
178	0x3e83e000	0.25756836
179	0xbe052000	-0.13000488
180	0xbd9d0000	-0.076660156
181	0x3cf6c000	0.03012085
182	0xbd7d8000	-0.06188965
183	0xbc028000	-0.007965088
184	0x3e700000	0.234375
185	0xbee58000	-0.4482422
186	0xbec98000	-0.3935547
187	0xbbf72000	-0.0075416565
188	0xbebb4000	-0.36572266
189	0x3d5de000	0.0541687
190	0xbe864000	-0.26220703
191	0xbe152000	-0.14562988
192	0x3e05a000	0.13049316
193	0xbdf90000	-0.12158203
194	0x3e2f6000	0.17126465
195	0x3e0ea000	0.13928223
196	0x3e54a000	0.2076416
197	0x3e76e000	0.24108887
198	0x3d97e000	0.074157715
199	0xbc3aa000	-0.011390686
200	0x3c8a6000	0.01689148
201	0xbe254000	-0.16137695
202	0xbc26a000	-0.010169983
203	0xbd0a0000	-0.033691406
204	0xbefce000	-0.49389648
205	0x3d284000	0.04107666
206	0x3e102000	0.14074707
207	0x3b03c000	0.0020103455
208	0xbd33a000	-0.04385376
209	0xbdac4000	-0.084106445
210	0x3d94c000	0.072631836
211	0x3dc80000	0.09765625
212	0x3b5ec000	0.0033988953
213	0xbda9a000	-0.08282471
214	0x3cf70000	0.030151367
215	0x3ddb6000	0.1071167
216	0xbc368000	-0.011138916
217	0x3dd84000	0.10559082
218	0xbe0bc000	-0.13647461
219	0x3d32a000	0.04360962
220	0xbe9f4000	-0.31103516
221	0xbe502000	-0.20324707
222	0xbe6f8000	-0.23388672
223	0xbd0d2000	-0.034454346
224	0xbddf8000	-0.10913086
225	0x3e62e000	0.22155762
226	0xbd30a000	-0.043121338
227	0x3e6fa000	0.23400879
228	0x3eb10000	0.34570312
229	0x3df46000	0.11932373
230	0xbcc50000	-0.024047852
231	0xbdedc000	-0.11608887
232	0x3d8ee000	0.06976318
233	0xbe1e6000	-0.15466309
234	0xbd8d2000	-0.06890869
235	0x3d53c000	0.051696777
236	0xbe878000	-0.26464844
237	0x3d29c000	0.04144287
238	0x3e4b0000	0.19824219
239	0x3e11a000	0.14221191
240	0x3e752000	0.23937988
241	0x3e0a2000	0.1348877
242	0x3d9aa000	0.07550049
243	0x3dfb2000	0.12261963
244	0xbd9c2000	-0.07623291
245	0xbe1d0000	-0.15332031
246	0x3e6f0000	0.23339844
247	0xbdfa6000	-0.12225342
248	0xbd2e4000	-0.042541504
249	0xbdca4000	-0.09875488
250	0xbe1f2000	-0.15539551
251	0x3dd3e000	0.10345459
252	0x3b0dc000	0.0021629333
253	0xbe6c4000	-0.23071289
254	0x3e0e2000	0.13879395
255	0xbdd70000	-0.10498047
