models/selfie_segmentation.pth (torch, 462565 bytes, 109 tensors)

selfie_sub_block1.conv1.weight f4 [24, 96, 1, 1]
0.54785156 -0.07287598 0.8354492 -0.25976562 0.67626953 -1.5976562 -0.47460938 -0.24243164
-0.6694336 2.3828125 -0.9116211 0.5493164 0.24914551 -0.5024414 -0.39892578 -0.12225342
-1.2626953 -0.7993164 1.3740234 -0.7421875 -1.4111328 -1.0722656 0.22521973 -0.056854248
-1.2490234 -0.7446289 1.6074219 0.5463867 -0.8642578 0.023986816 0.3022461 0.3762207
-1.1201172 0.6455078 0.27490234 -1.5214844 -1.3574219 0.6230469 -0.4519043 0.05480957
0.019882202 -0.31054688 -1.046875 -2.0410156 1.1621094 1.0009766 -1.7236328 -0.032592773
2.2753906 1.2597656 -1.5019531 1.2636719 0.47973633 -0.8364258 1.9980469 -0.20812988
0.12042236 -0.46826172 -0.50390625 -0.32226562 -1.9873047 -0.8022461 0.4033203 -0.8466797
-0.6269531 1.578125 0.11505127 -0.42919922 0.33544922 -0.06890869 -0.47143555 -0.28051758
-1.2216797 -1.4892578 -0.16882324 -0.7739258 -0.45483398 0.5517578 0.39624023 -1.5283203
0.47387695 0.2854004 -1.8535156 0.20678711 -0.03302002 -0.6376953 -0.8203125 0.82666016
0.4633789 0.2998047 0.7583008 1.1572266 1.0908203 0.50097656 -0.3491211 -0.41552734
-0.3564453 -0.81933594 0.0011558533 -0.68066406 -0.8803711 -0.50439453 -0.5605469 0.171875
-0.22753906 0.36767578 -0.25317383 -0.44580078 -0.86328125 -1.0039062 -0.3479004 -0.8125
-0.2631836 -0.11871338 0.06506348 -0.7421875 -0.109680176 -0.47631836 -0.03640747 -0.81152344
-0.23937988 -0.3408203 -0.071777344 -0.7104492 -0.27001953 0.32666016 -0.1743164 -0.15478516
-0.037384033 0.36645508 -0.71191406 0.32226562 -0.80029297 -0.29345703 -0.5234375 -0.42578125
-0.18835449 -0.49316406 -0.24157715 0.24194336 -0.33740234 0.5205078 -1.1494141 -0.0181427
-0.022201538 -0.44140625 -0.16674805 -0.66845703 -0.76171875 -0.4675293 0.39086914 0.07348633
-0.20300293 -0.59472656 -0.59472656 -0.35546875 -0.7138672 0.07446289 -0.84521484 -0.11315918
-0.5629883 -0.14916992 -0.60546875 0.3166504 -1.0634766 -0.32714844 -0.4741211 -0.35058594
-0.6796875 -0.0023422241 -0.8286133 -0.28808594 -0.36132812 -1.03125 -0.2709961 -0.35961914
-1.3466797 -0.4741211 0.0127334595 -0.3864746 -0.28076172 -0.6230469 -0.5888672 -0.6191406
0.32592773 0.65527344 -0.3544922 -0.35180664 -0.32910156 -0.29077148 -1.2236328 -0.09698486
-0.4638672 0.14196777 -1.2939453 -0.095458984 0.32299805 -0.29248047 -0.07342529 0.03378296
0.44677734 -0.43286133 0.04473877 -0.21313477 1.4228516 -0.045806885 0.34985352 -0.5449219
-0.45654297 -0.7211914 -0.1508789 -0.0018043518 -2.2460938 -0.6484375 0.24243164 0.7285156
-0.03262329 0.21643066 0.45166016 -0.45751953 -0.18481445 -0.2454834 -1.9189453 1.0253906
-0.6333008 0.37353516 -0.7861328 0.8125 0.04284668 -0.43920898 -0.4819336 0.042236328
0.73828125 0.33032227 0.0031909943 -0.6069336 -0.6582031 -0.5854492 0.6923828 -0.25732422
-0.10418701 0.04067993 0.16235352 -1.4208984 -0.28466797 -0.4663086 -0.9194336 0.2512207
-0.17773438 0.2692871 1.2978516 -0.73095703 0.47338867 0.10858154 0.28930664 0.91259766
00000000: 0040 0c3f 0040 95bd 00e0 553f 0000 85be
00000010: 0020 2d3f 0080 ccbf 0000 f3be 0040 78be
00000020: 0060 2bbf 0080 1840 0060 69bf 00a0 0c3f
00000030: 0020 7f3e 00a0 00bf 0040 ccbe 0060 fabd
00000040: 00a0 a1bf 00a0 4cbf 00e0 af3f 0000 3ebf
00000050: 00a0 b4bf 0040 89bf 00a0 663e 00e0 68bd
00000060: 00e0 9fbf 00a0 3ebf 00c0 cd3f 00e0 0b3f
00000070: 0040 5dbf 0080 c43c 00c0 9a3e 00a0 c03e
00000080: 0060 8fbf 0040 253f 00c0 8c3e 00c0 c2bf
00000090: 00c0 adbf 0080 1f3f 0060 e7be 0080 603d
000000a0: 00e0 a23c 0000 9fbe 0000 86bf 00a0 02c0
000000b0: 00c0 943f 0020 803f 00a0 dcbf 0080 05bd
000000c0: 00a0 1140 0040 a13f 0040 c0bf 00c0 a13f
000000d0: 00a0 f53e 0020 56bf 00c0 ff3f 0020 55be
000000e0: 00a0 f63d 00c0 efbe 0000 01bf 0000 a5be
000000f0: 0060 febf 0060 4dbf 0080 ce3e 00c0 58bf
00000100: 0080 20bf 0000 ca3f 00a0 eb3d 00c0 dbbe
00000110: 00c0 ab3e 0020 8dbd 0060 f1be 00a0 8fbe
00000120: 0060 9cbf 00a0 bebf 00e0 2cbe 0020 46bf
00000130: 00e0 e8be 0040 0d3f 00e0 ca3e 00a0 c3bf
00000140: 00a0 f23e 0020 923e 0040 edbf 00c0 533e
00000150: 0040 07bd 0040 23bf 0000 52bf 00a0 533f
00000160: 0040 ed3e 0080 993e 0020 423f 0020 943f
00000170: 00a0 8b3f 0040 003f 00c0 b2be 00c0 d4be
00000180: 0080 b6be 00c0 51bf 0080 973a 0040 2ebf
00000190: 0060 61bf 0020 01bf 0080 0fbf 0000 303e
000001a0: 0000 69be 0040 bc3e 00a0 81be 0040 e4be
000001b0: 0000 5dbf 0080 80bf 0020 b2be 0000 50bf
000001c0: 00c0 86be 0020 f3bd 0040 853d 0000 3ebf
000001d0: 00a0 e0bd 00e0 f3be 0020 15bd 00c0 4fbf
000001e0: 0020 75be 0080 aebe 0000 93bd 00e0 35bf
000001f0: 0040 8abe 0040 a73e 0080 32be 0080 1ebe
00000200: 0020 19bd 00a0 bb3e 0040 36bf 0000 a53e
00000210: 00e0 4cbf 0040 96be 0000 06bf 0000 dabe
00000220: 00e0 40be 0080 fcbe 0060 77be 00c0 773e
00000230: 00c0 acbe 0040 053f 0020 93bf 00a0 94bc
00000240: 00e0 b5bc 0000 e2be 00c0 2abe 0020 2bbf
00000250: 0000 43bf 0060 efbe 0020 c83e 0080 963d
00000260: 00e0 4fbe 0040 18bf 0040 18bf 0000 b6be
00000270: 00c0 36bf 0080 983d 0060 58bf 00c0 e7bd
00000280: 0020 10bf 00c0 18be 0000 1bbf 0020 a23e
00000290: 0020 88bf 0080 a7be 00c0 f2be 0080 b3be
000002a0: 0000 2ebf 0080 19bb 0020 54bf 0080 93be
000002b0: 0000 b9be 0000 84bf 00c0 8abe 0020 b8be
000002c0: 0060 acbf 00c0 f2be 00a0 503c 00e0 c5be
000002d0: 00c0 8fbe 0080 1fbf 00c0 16bf 0080 1ebf
000002e0: 00e0 a63e 00c0 273f 0080 b5be 0020 b4be
000002f0: 0080 a8be 00e0 94be 00a0 9cbf 00a0 c6bd
00000300: 0080 edbe 0060 113e 00a0 a5bf 0080 c3bd
00000310: 0060 a53e 00c0 95be 0060 96bd 0060 0a3d
00000320: 00c0 e43e 00a0 ddbe 0040 373d 0040 5abe
00000330: 0020 b63f 00a0 3bbd 0020 b33e 0080 0bbf
00000340: 00c0 e9be 00a0 38bf 0080 1abe 0080 ecba
00000350: 00c0 0fc0 0000 26bf 0040 783e 0080 3a3f
00000360: 00a0 05bd 00a0 5d3e 0040 e73e 0040 eabe
00000370: 0040 3dbe 0060 7bbe 00a0 f5bf 0040 833f
00000380: 0020 22bf 0040 bf3e 0040 49bf 0000 503f
00000390: 0080 2f3d 00e0 e0be 00c0 f6be 0000 2d3d
000003a0: 0000 3d3f 0020 a93e 0020 513b 0060 1bbf
000003b0: 0080 28bf 00e0 15bf 0040 313f 00c0 83be
000003c0: 0060 d5bd 00a0 263d 0040 263e 00e0 b5bf
000003d0: 00c0 91be 00c0 eebe 0060 6bbf 00a0 803e
000003e0: 0000 36be 00e0 893e 0020 a63f 0020 3bbf
000003f0: 0060 f23e 0060 de3d 0020 943e 00a0 693f

selfie_sub_block1.conv1.bias f4 [24]
-0.35620117 -0.6533203 0.35253906 -0.45996094 -1.0546875 0.39794922 0.11846924 -0.1586914
-0.9638672 -0.35961914 0.45361328 -0.41796875 -0.18725586 -0.25561523 -0.11846924 -0.106933594
-0.18322754 0.20251465 -0.18310547 -0.35913086 0.54052734 0.44848633 0.6328125 -0.44262695
00000000: 0060 b6be 0040 27bf 0080 b43e 0080 ebbe
00000010: 0000 87bf 00c0 cb3e 00a0 f23d 0080 22be
00000020: 00c0 76bf 0020 b8be 0040 e83e 0000 d6be
00000030: 00c0 3fbe 00e0 82be 00a0 f2bd 0000 dbbd
00000040: 00a0 3bbe 0060 4f3e 0080 3bbe 00e0 b7be
00000050: 0060 0a3f 00a0 e53e 0000 223f 00a0 e2be

selfie_sub_block1.conv2.weight f4 [96, 24, 1, 1]
0.048065186 0.52197266 0.010696411 -0.20898438 0.17163086 0.5527344 0.19482422 -0.03186035
0.7480469 0.3149414 -0.008712769 -0.2565918 0.02960205 0.1685791 -0.14575195 0.020431519
0.24682617 3.3554688 0.10522461 0.203125 -0.23071289 0.13366699 0.45825195 0.5048828
-0.36279297 0.31103516 -0.53515625 0.32202148 -0.12915039 0.4970703 -0.27441406 -0.19396973
0.43432617 -0.22583008 0.76953125 -0.17077637 -0.07086182 0.048858643 0.71435547 1.1552734
0.1307373 1.5888672 0.043548584 0.17883301 0.3190918 0.13537598 0.12915039 0.36987305
-0.22180176 0.15246582 0.48901367 0.17333984 0.48583984 0.38012695 -0.11004639 -0.055725098
0.023040771 -0.20996094 0.20471191 0.07720947 0.36401367 -0.06100464 -0.07733154 -0.17004395
0.06994629 0.60498047 0.028793335 0.07696533 -0.055603027 -0.090026855 0.20837402 0.34570312
1.4736328 0.18798828 0.051696777 0.34692383 -0.023910522 1.4677734 0.20251465 -0.2055664
-0.044769287 -0.061035156 3.2578125 0.16369629 0.10144043 -0.2253418 -0.57910156 0.7714844
0.13830566 1.4765625 1.6855469 0.11376953 0.57958984 -0.625 0.0028305054 -0.20593262
-0.2915039 -0.1348877 -0.06726074 -0.3857422 -0.03894043 0.53222656 0.39453125 -0.023971558
0.41552734 -0.33496094 -0.10168457 -0.06149292 0.10638428 -0.15429688 0.008041382 0.76660156
-0.14501953 0.07739258 1.2304688 0.4267578 0.09387207 -0.03955078 0.2668457 0.18457031
0.6953125 -0.16516113 0.3310547 0.32861328 0.58984375 -0.70996094 -0.10394287 -0.07647705
0.13781738 0.066833496 0.2199707 -0.007904053 -0.002521515 0.0847168 -0.13256836 0.36254883
-0.06652832 1.3017578 -0.28735352 0.06591797 0.15161133 0.3137207 0.27441406 -0.012825012
0.27563477 -0.9482422 0.30664062 0.29736328 -0.09680176 -0.95996094 0.47729492 0.071899414
0.37817383 0.0020656586 0.016311646 0.26464844 0.26049805 0.062683105 1.6777344 0.77978516
0.26464844 3.0664062 -0.28564453 -0.42089844 -0.27124023 0.40039062 1.2744141 0.36694336
-0.066467285 0.1965332 0.030914307 -0.20263672 -0.1295166 1.1787109 0.08905029 0.12371826
0.1171875 -0.31396484 -0.3803711 0.44213867 0.09991455 -0.22619629 -0.13659668 -0.11053467
-0.19873047 -1.6806641 1.7851562 0.53808594 0.9399414 -0.5708008 1.0009766 0.13049316
-0.1026001 -0.86816406 -0.46362305 0.22497559 -0.7788086 -0.19250488 -0.062683105 -0.03112793
0.9970703 -0.22790527 0.000121474266 0.6020508 0.07141113 -0.13562012 0.1739502 0.12890625
-0.09820557 0.32788086 -0.056488037 0.19421387 0.34326172 -0.09436035 0.38061523 0.44848633
0.66259766 -0.24938965 0.4038086 -0.28442383 -0.8964844 0.4753418 -0.21911621 -0.2800293
-0.32617188 0.18164062 -0.67333984 0.036010742 -0.3269043 0.07696533 -0.16235352 0.2421875
-0.03845215 -0.6484375 -1.3310547 -0.0692749 -0.39575195 1.2089844 -0.064331055 -0.12609863
1.234375 0.2836914 -0.5756836 0.66259766 0.6323242 0.24938965 0.11206055 -0.17712402
1.6074219 0.07269287 0.15161133 -0.1418457 -0.048675537 0.23156738 -0.33520508 0.5332031
00000000: 00e0 443d 00a0 053f 0040 2f3c 0000 56be
00000010: 00c0 2f3e 0080 0d3f 0080 473e 0080 02bd
00000020: 0080 3f3f 0040 a13e 00c0 0ebc 0060 83be
00000030: 0080 f23c 00a0 2c3e 0040 15be 0060 a73c
00000040: 00c0 7c3e 00c0 5640 0080 d73d 0000 503e
00000050: 0040 6cbe 00e0 083e 00a0 ea3e 0040 013f
00000060: 00c0 b9be 0040 9f3e 0000 09bf 00e0 a43e
00000070: 0040 04be 0080 fe3e 0080 8cbe 00a0 46be
00000080: 0060 de3e 0040 67be 0000 453f 00e0 2ebe
00000090: 0020 91bd 0020 483d 00e0 363f 00e0 933f
000000a0: 00e0 053e 0060 cb3f 0060 323d 0020 373e
000000b0: 0060 a33e 00a0 0a3e 0040 043e 0060 bd3e
000000c0: 0020 63be 0020 1c3e 0060 fa3e 0080 313e
000000d0: 00c0 f83e 00a0 c23e 0060 e1bd 0040 64bd
000000e0: 00c0 bc3c 0000 57be 00a0 513e 0020 9e3d
000000f0: 0060 ba3e 00e0 79bd 0060 9ebd 0020 2ebe
00000100: 0040 8f3d 00e0 1a3f 00e0 eb3c 00a0 9d3d
00000110: 00c0 63bd 0060 b8bd 0060 553e 0000 b13e
00000120: 00a0 bc3f 0080 403e 00c0 533d 00a0 b13e
00000130: 00e0 c3bc 00e0 bb3f 0060 4f3e 0080 52be
00000140: 0060 37bd 0000 7abd 0080 5040 00a0 273e
00000150: 00c0 cf3d 00c0 66be 0040 14bf 0080 453f
00000160: 00a0 0d3e 0000 bd3f 00c0 d73f 0000 e93d
00000170: 0060 143f 0000 20bf 0080 393b 00e0 52be
00000180: 0040 95be 0020 0abe 00c0 89bd 0080 c5be
00000190: 0080 1fbd 0040 083f 0000 ca3e 0060 c4bc
000001a0: 00c0 d43e 0080 abbe 0040 d0bd 00e0 7bbd
000001b0: 00e0 d93d 0000 1ebe 00c0 033c 0040 443f
000001c0: 0080 14be 0080 9e3d 0080 9d3f 0080 da3e
000001d0: 0040 c03d 0000 22bd 00a0 883e 0000 3d3e
000001e0: 0000 323f 0020 29be 0080 a93e 0040 a83e
000001f0: 0000 173f 00c0 35bf 00e0 d4bd 00a0 9cbd
00000200: 0020 0d3e 00e0 883d 0040 613e 0080 01bc
00000210: 0040 25bb 0080 ad3d 00c0 07be 00a0 b93e
00000220: 0040 88bd 00a0 a63f 0020 93be 0000 873d
00000230: 0040 1b3e 00a0 a03e 0080 8c3e 0020 52bc
00000240: 0020 8d3e 00c0 72bf 0000 9d3e 0040 983e
00000250: 0040 c6bd 00c0 75bf 0060 f43e 0040 933d
00000260: 00a0 c13e 0060 073b 00a0 853c 0080 873e
00000270: 0060 853e 0060 803d 00c0 d63f 00a0 473f
00000280: 0080 873e 0040 4440 0040 92be 0080 d7be
00000290: 00e0 8abe 0000 cd3e 0020 a33f 00e0 bb3e
000002a0: 0020 88bd 0040 493e 0040 fd3c 0080 4fbe
000002b0: 00a0 04be 00e0 963f 0060 b63d 0060 fd3d
000002c0: 0000 f03d 00c0 a0be 00c0 c2be 0060 e23e
000002d0: 00a0 cc3d 00a0 67be 00e0 0bbe 0060 e2bd
000002e0: 0080 4bbe 0020 d7bf 0080 e43f 00c0 093f
000002f0: 00a0 703f 0020 12bf 0020 803f 00a0 053e
00000300: 0020 d2bd 0040 5ebf 0060 edbe 0060 663e
00000310: 0060 47bf 0020 45be 0060 80bd 0000 ffbc
00000320: 0040 7f3f 0060 69be 00c0 fe38 0020 1a3f
00000330: 0040 923d 00e0 0abe 0020 323e 0000 043e
00000340: 0020 c9bd 00e0 a73e 0060 67bd 00e0 463e
00000350: 00c0 af3e 0040 c1bd 00e0 c23e 00a0 e53e
00000360: 00a0 293f 0060 7fbe 00c0 ce3e 00a0 91be
00000370: 0080 65bf 0060 f33e 0060 60be 0060 8fbe
00000380: 0000 a7be 0000 3a3e 0060 2cbf 0080 133d
00000390: 0060 a7be 00a0 9d3d 0040 26be 0000 783e
000003a0: 0080 1dbd 0000 26bf 0060 aabf 00e0 8dbd
000003b0: 00a0 cabe 00c0 9a3f 00c0 83bd 0020 01be
000003c0: 0000 9e3f 0040 913e 0060 13bf 00a0 293f
000003d0: 00e0 213f 0060 7f3e 0080 e53d 0060 35be
000003e0: 00c0 cd3f 00e0 943d 0040 1b3e 0040 11be
000003f0: 0060 47bd 0020 6d3e 00a0 abbe 0080 083f

selfie_sub_block1.conv2.bias f4 [96]
0.30322266 2.2714844 0.35131836 3.1621094 -0.10394287 0.7475586 2.0917969 1.6015625
0.61279297 1.6123047 2.5546875 1.9433594 0.88671875 -0.12939453 2.6191406 1.9677734
0.609375 1.9462891 1.6689453 1.0498047 2.0097656 0.9458008 0.546875 1.2705078
2.6484375 0.20617676 0.8491211 2.484375 1.4042969 1.4667969 -2.6074219 0.11450195
1.8095703 0.55566406 2.4296875 1.1865234 -0.08154297 2.4863281 0.78027344 2.9472656
0.99902344 3.0078125 0.6953125 1.9521484 -0.10064697 1.2597656 1.2646484 1.1523438
2.15625 1.4882812 1.0166016 0.20812988 1.6455078 2.2753906 1.5859375 0.28881836
2.1738281 2.3710938 2.9902344 -1.7744141 -1.0625 -0.05731201 0.9560547 -0.9707031
2.3457031 0.56689453 -1.4003906 2.8105469 3.2226562 2.2324219 -0.8354492 2.9609375
2.3828125 2.015625 1.7773438 3.15625 0.31518555 2.3496094 0.8276367 0.50634766
-1.7753906 2.4375 1.3935547 1.7919922 1.2714844 0.79248047 2.4121094 1.3388672
2.4375 2.2363281 1.1445312 1.8867188 1.1103516 0.35986328 1.1923828 0.72558594
00000000: 0040 9b3e 0060 1140 00e0 b33e 0060 4a40
00000010: 00e0 d4bd 0060 3f3f 00e0 0540 0000 cd3f
00000020: 00e0 1c3f 0060 ce3f 0080 2340 00c0 f83f
00000030: 0000 633f 0080 04be 00a0 2740 00e0 fb3f
00000040: 0000 1c3f 0020 f93f 00a0 d53f 0060 863f
00000050: 00a0 0040 0020 723f 0000 0c3f 00a0 a23f
00000060: 0080 2940 0020 533e 0060 593f 0000 1f40
00000070: 00c0 b33f 00c0 bb3f 00e0 26c0 0080 ea3d
00000080: 00a0 e73f 0040 0e3f 0080 1b40 00e0 973f
00000090: 0000 a7bd 0020 1f40 00c0 473f 00a0 3c40
000000a0: 00c0 7f3f 0080 4040 0000 323f 00e0 f93f
000000b0: 0020 cebd 0040 a13f 00e0 a13f 0080 933f
000000c0: 0000 0a40 0080 be3f 0020 823f 0020 553e
000000d0: 00a0 d23f 00a0 1140 0000 cb3f 00e0 933e
000000e0: 0020 0b40 00c0 1740 0060 3f40 0020 e3bf
000000f0: 0000 88bf 00c0 6abd 00c0 743f 0080 78bf
00000100: 0020 1640 0020 113f 0040 b3bf 00e0 3340
00000110: 0040 4e40 00e0 0e40 00e0 55bf 0080 3d40
00000120: 0080 1840 0000 0140 0080 e33f 0000 4a40
00000130: 0060 a13e 0060 1640 00e0 533f 00a0 013f
00000140: 0040 e3bf 0000 1c40 0060 b23f 0060 e53f
00000150: 00c0 a23f 00e0 4a3f 0060 1a40 0060 ab3f
00000160: 0000 1c40 0020 0f40 0080 923f 0080 f13f
00000170: 0020 8e3f 0040 b83e 00a0 983f 00c0 393f

selfie_sub_block1.conv3.weight f4 [32, 96, 1, 1]
0.16479492 0.18798828 0.02519226 -0.08508301 0.2578125 -0.24768066 -0.24609375 0.13256836
-0.06640625 -0.18762207 0.18652344 0.15710449 -0.0209198 0.13659668 -0.26489258 -0.14611816
-0.54052734 -0.10321045 -0.025604248 -0.09051514 0.059295654 0.015914917 -0.61572266 0.32373047
-0.07434082 0.62060547 0.12609863 -0.3984375 -0.3581543 -0.20043945 0.32788086 -0.1505127
-0.37719727 -0.010353088 -0.18188477 0.15844727 0.30444336 -0.64208984 0.3173828 0.23181152
0.11419678 0.5493164 -0.19177246 -0.3540039 0.001616478 -0.2310791 0.07147217 -0.36889648
0.20666504 0.2265625 0.32006836 -0.15063477 0.29248047 -0.37890625 0.31176758 -0.31689453
0.09185791 -0.6904297 -0.578125 -0.22460938 -0.10180664 -0.012306213 0.25097656 0.18798828
-0.2614746 -0.08911133 0.37451172 0.35742188 -0.27001953 0.017456055 0.31030273 0.37890625
-0.3022461 0.05368042 0.028671265 -0.22631836 -0.17077637 0.14892578 -0.09484863 0.2536621
-0.22290039 -0.21105957 -0.19482422 -0.2475586 0.14562988 0.15490723 0.044891357 -0.08666992
-0.28515625 0.65527344 0.36376953 -0.15026855 0.45141602 0.1739502 0.10571289 0.37158203
0.14892578 0.29833984 0.11248779 -0.56152344 0.08532715 -0.2524414 0.28295898 -0.066467285
-0.32128906 -0.24914551 -0.26538086 0.10900879 0.16381836 -0.46240234 -0.08557129 -0.2626953
-0.07305908 -0.037628174 -0.5239258 -0.026672363 -0.12054443 -0.2866211 -0.099121094 0.49414062
-0.20166016 0.44506836 0.16662598 -0.021514893 0.14709473 -0.07635498 0.09161377 -0.42773438
-0.051086426 -0.7104492 -0.34228516 -0.07293701 -0.03579712 0.6645508 0.25732422 -0.117492676
0.088012695 -0.23522949 -0.25268555 0.048583984 -0.20910645 -0.13476562 0.11773682 0.15930176
0.46191406 0.33447266 0.21936035 -0.4165039 -0.16784668 -0.04360962 0.2084961 -0.8823242
-0.114990234 0.41796875 -0.5419922 -0.092285156 0.090148926 -0.25830078 -0.09301758 -0.60595703
0.034576416 -0.08294678 -0.014579773 -0.45239258 -0.5131836 0.24682617 -0.4074707 -0.045898438
-0.31225586 -0.21765137 0.037872314 -0.13586426 -0.21435547 -0.1628418 0.23010254 -0.079589844
0.12988281 0.00067710876 0.2763672 -0.9638672 -0.20019531 0.29833984 -0.20812988 0.30371094
-0.15112305 0.2454834 0.0013999939 -0.25390625 0.07537842 -0.40551758 0.15319824 -0.64208984
-0.017349243 -0.119384766 -0.049804688 -0.2397461 -0.47973633 -0.044128418 -0.046691895 -0.040283203
-0.11364746 -0.5620117 0.2861328 0.18408203 -0.2454834 0.015060425 -0.23657227 -0.059906006
-0.10211182 -0.33544922 -0.14477539 -0.14855957 0.08984375 -0.010017395 0.093933105 -0.23840332
0.032470703 0.3269043 -0.15356445 -0.16687012 -0.094177246 -0.25146484 -0.21252441 0.06506348
0.11828613 0.29956055 -0.19226074 -0.33789062 -0.085754395 0.3408203 -0.08105469 -0.007106781
-0.014549255 -0.12854004 -0.10015869 0.01927185 0.7001953 0.22058105 -0.03970337 -0.26098633
-0.21716309 -0.042938232 -0.22277832 -0.15991211 -0.18395996 -0.08996582 -0.17175293 0.98876953
-0.19934082 -0.61816406 -0.33374023 0.15454102 -0.28759766 -0.019073486 0.7182617 0.049621582
00000000: 00c0 283e 0080 403e 0060 ce3c 0040 aebd
00000010: 0000 843e 00a0 7dbe 0000 7cbe 00c0 073e
00000020: 0000 88bd 0020 40be 0000 3f3e 00e0 203e
00000030: 0060 abbc 00e0 0b3e 00a0 87be 00a0 15be
00000040: 0060 0abf 0060 d3bd 00c0 d1bc 0060 b9bd
00000050: 00e0 723d 0060 823c 00a0 1dbf 00c0 a53e
00000060: 0040 98bd 00e0 1e3f 0020 013e 0000 ccbe
00000070: 0060 b7be 0040 4dbe 00e0 a73e 0020 1abe
00000080: 0020 c1be 00a0 29bc 0040 3abe 0040 223e
00000090: 00e0 9b3e 0060 24bf 0080 a23e 0060 6d3e
000000a0: 00e0 e93d 00a0 0c3f 0060 44be 0040 b5be
000000b0: 00e0 d33a 00a0 6cbe 0060 923d 00e0 bcbe
000000c0: 00a0 533e 0000 683e 00e0 a33e 0040 1abe
000000d0: 00c0 953e 0000 c2be 00a0 9f3e 0040 a2be
000000e0: 0020 bc3d 00c0 30bf 0000 14bf 0000 66be
000000f0: 0080 d0bd 00a0 49bc 0080 803e 0080 403e
00000100: 00e0 85be 0080 b6bd 00c0 bf3e 0000 b73e
00000110: 0040 8abe 0000 8f3c 00e0 9e3e 0000 c23e
00000120: 00c0 9abe 00e0 5b3d 00e0 ea3c 00c0 67be
00000130: 00e0 2ebe 0080 183e 0040 c2bd 00e0 813e
00000140: 0040 64be 0020 58be 0080 47be 0080 7dbe
00000150: 0020 153e 00a0 1e3e 00e0 373d 0080 b1bd
00000160: 0000 92be 00c0 273f 0040 ba3e 00e0 19be
00000170: 0020 e73e 0020 323e 0080 d83d 0040 be3e
00000180: 0080 183e 00c0 983e 0060 e63d 00c0 0fbf
00000190: 00c0 ae3d 0040 81be 00e0 903e 0020 88bd
000001a0: 0080 a4be 0020 7fbe 00e0 87be 0040 df3d
000001b0: 00c0 273e 00c0 ecbe 0040 afbd 0080 86be
000001c0: 00a0 95bd 0020 1abd 0020 06bf 0080 dabc
000001d0: 00e0 f6bd 00c0 92be 0000 cbbd 0000 fd3e
000001e0: 0080 4ebe 00e0 e33e 00a0 2a3e 0040 b0bc
000001f0: 00a0 163e 0060 9cbd 00a0 bb3d 0000 dbbe
00000200: 0040 51bd 00e0 35bf 0040 afbe 0060 95bd
00000210: 00a0 12bd 0020 2a3f 00c0 833e 00a0 f0bd
00000220: 0040 b43d 00e0 70be 0060 81be 0000 473d
00000230: 0020 56be 0000 0abe 0020 f13d 0020 233e
00000240: 0080 ec3e 0040 ab3e 00a0 603e 0040 d5be
00000250: 00e0 2bbe 00a0 32bd 0080 553e 00e0 61bf
00000260: 0080 ebbd 0000 d63e 00c0 0abf 0000 bdbd
00000270: 00a0 b83d 0040 84be 0080 bebd 0020 1bbf
00000280: 00a0 0d3d 00e0 a9bd 00e0 6ebc 00a0 e7be
00000290: 0060 03bf 00c0 7c3e 00a0 d0be 0000 3cbd
000002a0: 00e0 9fbe 00e0 5ebe 0020 1b3d 0020 0bbe
000002b0: 0080 5bbe 00c0 26be 00a0 6b3e 0000 a3bd
000002c0: 0000 053e 0080 313a 0080 8d3e 00c0 76bf
000002d0: 0000 4dbe 00c0 983e 0020 55be 0080 9b3e
000002e0: 00c0 1abe 0060 7b3e 0080 b73a 0000 82be
000002f0: 0060 9a3d 00a0 cfbe 00e0 1c3e 0060 24bf
00000300: 0020 8ebc 0080 f4bd 0000 4cbd 0080 75be
00000310: 00a0 f5be 00c0 34bd 0040 3fbd 0000 25bd
00000320: 00c0 e8bd 00e0 0fbf 0080 923e 0080 3c3e
00000330: 0060 7bbe 00c0 763c 0040 72be 0060 75bd
00000340: 0020 d1bd 00c0 abbe 0040 14be 0020 18be
00000350: 0000 b83d 0020 24bc 0060 c03d 0020 74be
00000360: 0000 053d 0060 a73e 0040 1dbe 00e0 2abe
00000370: 00e0 c0bd 00c0 80be 00a0 59be 0040 853d
00000380: 0040 f23d 0060 993e 00e0 44be 0000 adbe
00000390: 00a0 afbd 0080 ae3e 0000 a6bd 00e0 e8bb
000003a0: 0060 6ebc 00a0 03be 0020 cdbd 00e0 9d3c
000003b0: 0040 333f 00e0 613e 00a0 22bd 00a0 85be
000003c0: 0060 5ebe 00e0 2fbd 0020 64be 00c0 23be
000003d0: 0060 3cbe 0040 b8bd 00e0 2fbe 0020 7d3f
000003e0: 0020 4cbe 0040 1ebf 00e0 aabe 0040 1e3e
000003f0: 0040 93be 0040 9cbc 00e0 373f 0040 4b3d

selfie_sub_block1.conv3.bias f4 [32]
-0.12963867 0.6269531 0.24353027 -0.77441406 0.06222534 -0.38134766 0.3071289 -0.3713379
0.9794922 0.041229248 -1.3574219 0.3864746 -0.51708984 0.10168457 0.01966858 0.015716553
-0.0013360977 0.17492676 -0.6176758 0.12548828 -0.27075195 0.3540039 -0.3112793 -0.6503906
0.46923828 1.0195312 -0.3515625 -0.21472168 -0.26342773 0.84228516 -0.83984375 0.9667969
00000000: 00c0 04be 0080 203f 0060 793e 0040 46bf
00000010: 00e0 7e3d 0040 c3be 0040 9d3e 0020 bebe
00000020: 00c0 7a3f 00e0 283d 00c0 adbf 00e0 c53e
00000030: 0060 04bf 0040 d03d 0020 a13c 00c0 803c
00000040: 0020 afba 0020 333e 0020 1ebf 0080 003e
00000050: 00a0 8abe 0040 b53e 0060 9fbe 0080 26bf
00000060: 0040 f03e 0080 823f 0000 b4be 00e0 5bbe
00000070: 00e0 86be 00a0 573f 0000 57bf 0080 773f

selfie_block1.conv1.weight f4 [128, 32, 1, 1]
0.17285156 0.21899414 0.00712204 0.15161133 -0.2524414 -0.23730469 0.21569824 -0.17016602
0.08508301 0.03555298 0.12573242 -0.14318848 0.05444336 -0.28686523 -0.013114929 -0.02116394
0.007648468 -0.07519531 0.19555664 0.07086182 0.12561035 0.04937744 0.058258057 -0.13171387
-0.15942383 0.070495605 -0.002494812 -0.038482666 0.26879883 0.030975342 -0.13623047 0.053619385
0.021057129 0.24731445 -0.07196045 0.10070801 -0.1652832 0.057678223 -0.105773926 -0.059753418
0.1887207 0.36816406 0.20751953 -0.050750732 0.16186523 0.07861328 0.19006348 0.056030273
0.2878418 0.06451416 0.13549805 -0.054595947 -0.043182373 -0.06359863 0.06210327 -0.15539551
0.105163574 0.2434082 -0.25 0.23583984 -0.17163086 -0.017791748 0.01939392 -0.017959595
-0.21887207 -0.08630371 0.1817627 -0.24414062 0.008110046 0.05102539 -0.042907715 -0.045715332
-0.33935547 0.13977051 -0.10845947 -0.09466553 0.19091797 -0.21252441 -0.045562744 -0.034698486
0.17297363 -0.14465332 0.045562744 -0.2536621 0.2878418 0.12548828 -0.11785889 0.18933105
-0.16186523 -0.12194824 -0.15234375 -0.16638184 -0.088012695 -0.19348145 0.30322266 0.18481445
-0.105895996 0.0073394775 0.099853516 -0.18469238 0.03302002 -0.062805176 0.072021484 0.0135269165
0.02180481 0.06665039 -0.070007324 0.2331543 -0.008712769 0.109069824 -0.07727051 0.014633179
-0.0067749023 -0.20812988 0.060455322 -0.06463623 0.10406494 -0.05014038 -0.009689331 -0.033599854
0.068481445 0.020904541 -0.12054443 0.0446167 -0.031066895 -0.0058135986 -0.036376953 -0.00843811
0.050445557 0.60546875 0.4086914 0.2607422 0.16381836 0.07745361 0.10455322 -0.32128906
0.015594482 0.49853516 -0.35205078 0.22045898 0.21459961 0.14440918 0.05404663 0.2154541
-0.12286377 -0.05316162 -0.06964111 -0.13769531 0.06890869 -0.16967773 0.050201416 0.10296631
-0.18383789 -0.1484375 0.5053711 0.3161621 -0.45947266 -0.11151123 -0.29052734 -0.21057129
0.015625 0.13977051 0.1430664 -0.18041992 -0.09313965 0.0541687 -0.31274414 -0.06854248
-0.16662598 -0.06161499 -0.103881836 0.08514404 0.10131836 0.11071777 -0.2619629 0.171875
0.13842773 -0.32763672 0.13122559 0.36865234 -0.5019531 0.3203125 0.0970459 -0.030380249
-0.0019416809 0.045562744 0.026229858 0.36816406 0.11846924 0.1295166 -0.044647217 0.27416992
-0.044036865 0.07800293 -0.22937012 -0.13562012 -0.23840332 -0.11987305 -0.10571289 -0.2541504
0.14160156 -0.2166748 -0.11431885 0.359375 -0.044281006 -0.08917236 -0.059936523 0.11669922
0.24633789 0.18322754 -0.0814209 -0.015777588 -0.2619629 0.22961426 0.021118164 -0.16540527
-0.06317139 0.060272217 0.072631836 0.074523926 0.19226074 0.08746338 0.029785156 -0.034942627
0.068847656 -0.039916992 0.17114258 0.33935547 -0.19848633 -0.06793213 0.064575195 -0.4333496
-0.10308838 -0.16467285 0.19824219 -0.04269409 -0.11639404 -0.13977051 -0.1920166 -0.107421875
-0.4790039 -0.0748291 -0.19836426 -0.0044517517 -0.07354736 0.296875 -0.19873047 -0.2319336
-0.020858765 0.31030273 0.14245605 0.32666016 -0.13439941 0.24194336 -0.07324219 -0.005706787
00000000: 0000 313e 0040 603e 0060 e93b 0040 1b3e
00000010: 0040 81be 0000 73be 00e0 5c3e 0040 2ebe
00000020: 0040 ae3d 00a0 113d 00c0 003e 00a0 12be
00000030: 0000 5f3d 00e0 92be 00e0 56bc 0060 adbc
00000040: 00a0 fa3b 0000 9abd 0040 483e 0020 913d
00000050: 00a0 003e 0040 4a3d 00a0 6e3d 00e0 06be
00000060: 0040 23be 0060 903d 0080 23bb 00a0 1dbd
00000070: 00a0 893e 00c0 fd3c 0080 0bbe 00a0 5b3d
00000080: 0080 ac3c 0040 7d3e 0060 93bd 0040 ce3d
00000090: 0040 29be 0040 6c3d 00a0 d8bd 00c0 74bd
000000a0: 0040 413e 0080 bc3e 0080 543e 00e0 4fbd
000000b0: 00c0 253e 0000 a13d 00a0 423e 0080 653d
000000c0: 0060 933e 0020 843d 00c0 0a3e 00a0 5fbd
000000d0: 00e0 30bd 0040 82bd 0060 7e3d 0020 1fbe
000000e0: 0060 d73d 0040 793e 0000 80be 0080 713e
000000f0: 00c0 2fbe 00c0 91bc 00e0 9e3c 0020 93bc
00000100: 0020 60be 00c0 b0bd 0020 3a3e 0000 7abe
00000110: 00e0 043c 0000 513d 00c0 2fbd 0040 3bbd
00000120: 00c0 adbe 0020 0f3e 0020 debd 00e0 c1bd
00000130: 0080 433e 00a0 59be 00a0 3abd 0020 0ebd
00000140: 0020 313e 0020 14be 00a0 3a3d 00e0 81be
00000150: 0060 933e 0080 003e 0060 f1bd 00e0 413e
00000160: 00c0 25be 00c0 f9bd 0000 1cbe 0060 2abe
00000170: 0040 b4bd 0020 46be 0040 9b3e 0040 3d3e
00000180: 00e0 d8bd 0080 f03b 0080 cc3d 0020 3dbe
00000190: 0040 073d 00a0 80bd 0080 933d 00a0 5d3c
000001a0: 00a0 b23c 0080 883d 0060 8fbd 00c0 6e3e
000001b0: 00c0 0ebc 0060 df3d 0040 9ebd 00c0 6f3c
000001c0: 0000 debb 0020 55be 00a0 773d 0060 84bd
000001d0: 0020 d53d 0060 4dbd 00c0 1ebc 00a0 09bd
000001e0: 0040 8c3d 0040 ab3c 00e0 f6bd 00c0 363d
000001f0: 0080 febc 0080 bebb 0000 15bd 0040 0abc
00000200: 00a0 4e3d 0000 1b3f 0040 d13e 0080 853e
00000210: 00c0 273e 00a0 9e3d 0020 d63d 0080 a4be
00000220: 0080 7f3c 0040 ff3e 0040 b4be 00c0 613e
00000230: 00c0 5b3e 00e0 133e 0060 5d3d 00a0 5c3e
00000240: 00a0 fbbd 00c0 59bd 00a0 8ebd 0000 0dbe
00000250: 0020 8d3d 00c0 2dbe 00a0 4d3d 00e0 d23d
00000260: 0040 3cbe 0000 18be 0060 013f 00e0 a13e
00000270: 0040 ebbe 0060 e4bd 00c0 94be 00a0 57be
00000280: 0000 803c 0020 0f3e 0080 123e 00c0 38be
00000290: 00c0 bebd 00e0 5d3d 0020 a0be 0060 8cbd
000002a0: 00a0 2abe 0060 7cbd 00c0 d4bd 0060 ae3d
000002b0: 0080 cf3d 00c0 e23d 0020 86be 0000 303e
000002c0: 00c0 0d3e 00c0 a7be 0060 063e 00c0 bc3e
000002d0: 0080 00bf 0000 a43e 00c0 c63d 00e0 f8bc
000002e0: 0080 feba 00a0 3a3d 00e0 d63c 0080 bc3e
000002f0: 00a0 f23d 00a0 043e 00e0 36bd 0060 8c3e
00000300: 0060 34bd 00c0 9f3d 00e0 6abe 00e0 0abe
00000310: 0020 74be 0080 f5bd 0080 d8bd 0020 82be
00000320: 0000 113e 00e0 5dbe 0020 eabd 0000 b83e
00000330: 0060 35bd 00a0 b6bd 0080 75bd 0000 ef3d
00000340: 0040 7c3e 00a0 3b3e 00c0 a6bd 0040 81bc
00000350: 0020 86be 0020 6b3e 0000 ad3c 0060 29be
00000360: 0060 81bd 00e0 763d 00c0 943d 00a0 983d
00000370: 00e0 443e 0020 b33d 0000 f43c 0020 0fbd
00000380: 0000 8d3d 0080 23bd 0040 2f3e 00c0 ad3e
00000390: 0040 4bbe 0020 8bbd 0040 843d 00e0 ddbe
000003a0: 0020 d3bd 00a0 28be 0000 4b3e 00e0 2ebd
000003b0: 0060 eebd 0020 0fbe 00a0 44be 0000 dcbd
000003c0: 0040 f5be 0040 99bd 0020 4bbe 00e0 91bb
000003d0: 00a0 96bd 0000 983e 0080 4bbe 0080 6dbe
000003e0: 00e0 aabc 00e0 9e3e 00e0 113e 0040 a73e
000003f0: 00a0 09be 00c0 773e 0000 96bd 0000 bbbb

selfie_block1.conv1.bias f4 [128]
-0.8779297 -0.7915039 3.0195312 -0.056549072 -0.8076172 0.9584961 -0.90722656 0.18762207
1.4316406 -0.30200195 0.9394531 1.2626953 0.91015625 -1.1542969 2.0605469 -0.52783203
0.05706787 2.4804688 0.31396484 -0.42749023 0.34692383 -0.036254883 -0.8676758 -0.47924805
-0.11126709 -0.52490234 0.6738281 1.7675781 -1.6123047 1.8095703 -0.23986816 0.5551758
-0.2286377 0.4729004 0.035705566 1.5029297 -0.14929199 -0.91552734 -0.012649536 0.30493164
1.1269531 0.7006836 0.5908203 -1.1708984 1.4814453 -0.21765137 0.3359375 -0.056518555
3.1113281 3.0957031 -0.028182983 -0.625 0.060668945 1.0996094 0.03955078 1.8056641
-0.09124756 -0.41748047 1.6328125 -0.010345459 2.6347656 -0.34033203 0.31835938 1.5439453
1.3544922 1.0166016 1.2705078 -0.31884766 0.17822266 1.8125 0.31079102 0.63671875
1.2070312 -1.0576172 -0.26245117 1.6806641 -0.013008118 -0.6791992 0.46191406 0.030960083
-0.7446289 -0.47802734 0.6118164 -0.9946289 1.6679688 -0.43530273 -0.018035889 2.046875
-0.13049316 0.068603516 -1.0654297 0.26489258 -0.27416992 -0.8979492 1.6796875 2.2558594
-0.05255127 -0.9555664 -0.26611328 1.5771484 -0.28808594 1.2333984 -0.66796875 1.3789062
1.3203125 -0.29345703 -0.10119629 -0.13867188 0.78271484 0.3125 1.1152344 2.2167969
0.64208984 1.0107422 2.1445312 0.40722656 -1.0566406 -1.3144531 -0.36694336 1.7558594
-0.2919922 0.105529785 0.00907135 0.91748047 -1.0273438 0.91308594 1.7714844 0.7685547
00000000: 00c0 60bf 00a0 4abf 0040 4140 00a0 67bd
00000010: 00c0 4ebf 0060 753f 0040 68bf 0020 403e
00000020: 0040 b73f 00a0 9abe 0080 703f 00a0 a13f
00000030: 0000 693f 00c0 93bf 00e0 0340 0020 07bf
00000040: 00c0 693d 00c0 1e40 00c0 a03e 00e0 dabe
00000050: 00a0 b13e 0080 14bd 0020 5ebf 0060 f5be
00000060: 00e0 e3bd 0060 06bf 0080 2c3f 0040 e23f
00000070: 0060 cebf 00a0 e73f 00a0 75be 0020 0e3f
00000080: 0020 6abe 0020 f23e 0040 123d 0060 c03f
00000090: 00e0 18be 0060 6abf 0040 4fbc 0020 9c3e
000000a0: 0040 903f 0060 333f 0040 173f 00e0 95bf
000000b0: 00a0 bd3f 00e0 5ebe 0000 ac3e 0080 67bd
000000c0: 0020 4740 0020 4640 00e0 e6bc 0000 20bf
000000d0: 0080 783d 00c0 8c3f 0000 223d 0020 e73f
000000e0: 00e0 babd 00c0 d5be 0000 d13f 0080 29bc
000000f0: 00a0 2840 0040 aebe 0000 a33e 00a0 c53f
00000100: 0060 ad3f 0020 823f 00a0 a23f 0040 a3be
00000110: 0080 363e 0000 e83f 0020 9f3e 0000 233f
00000120: 0080 9a3f 0060 87bf 0060 86be 0020 d73f
00000130: 0020 55bc 00e0 2dbf 0080 ec3e 00a0 fd3c
00000140: 00a0 3ebf 00c0 f4be 00a0 1c3f 00a0 7ebf
00000150: 0080 d53f 00e0 debe 00c0 93bc 0000 0340
00000160: 00a0 05be 0080 8c3d 0060 88bf 00a0 873e
00000170: 0060 8cbe 00e0 65bf 0000 d73f 0060 1040
00000180: 0040 57bd 00a0 74bf 0040 88be 00e0 c93f
00000190: 0080 93be 00e0 9d3f 0000 2bbf 0080 b03f
000001a0: 0000 a93f 0040 96be 0040 cfbd 0000 0ebe
000001b0: 0060 483f 0000 a03e 00c0 8e3f 00e0 0d40
000001c0: 0060 243f 0060 813f 0040 0940 0080 d03e
000001d0: 0040 87bf 0040 a8bf 00e0 bbbe 00c0 e03f
000001e0: 0080 95be 0020 d83d 00a0 143c 00e0 6a3f
000001f0: 0080 83bf 00c0 693f 00c0 e23f 00c0 443f

selfie_block1.conv2.weight f4 [128, 1, 5, 5]
0.10235596 -0.11315918 -0.0035076141 -0.064086914 -0.074279785 0.003768921 -0.48413086 -0.8925781
-0.7290039 -0.058898926 -0.0049819946 0.060333252 -0.068847656 0.07147217 -0.009346008 -0.15917969
-0.066711426 0.049468994 -0.1583252 -0.0046195984 0.09399414 0.042907715 0.022476196 -0.0013113022
-0.022460938 -0.053131104 -0.10070801 0.5854492 0.10852051 -0.07171631 0.16589355 0.17590332
0.7758789 0.25927734 0.02394104 0.12683105 -0.04336548 -0.18969727 -0.123535156 0.31811523
0.16113281 -0.734375 -1.1855469 -0.50341797 0.25830078 0.025848389 0.19812012 0.1986084
0.27954102 0.04034424 -0.09680176 -0.05102539 -0.022735596 -0.06781006 -0.015899658 -0.08770752
-0.109069824 0.051849365 -0.07324219 -0.085998535 -0.091674805 -0.09729004 0.23352051 0.033172607
-0.1307373 -0.06921387 -0.061553955 -0.054748535 -0.10522461 -0.06628418 -0.001244545 0.01461792
0.020858765 0.03753662 0.0011453629 -0.34545898 -0.10760498 -0.15820312 0.06536865 -0.009231567
-0.23486328 -0.08880615 -0.6123047 -0.4260254 -0.0647583 -0.29638672 -0.87646484 -1.2451172
-1.2128906 -0.11639404 -0.3317871 -0.26391602 1.6835938 0.8125 0.25878906 0.13232422
-8.8095665e-05 0.45263672 0.703125 0.66308594 -0.17419434 -0.12597656 -0.29003906 -0.1237793
-0.18640137 -0.085754395 -0.19250488 -0.38476562 -0.14685059 -0.08288574 -0.023620605 0.11791992
0.23120117 -0.0027866364 -0.07513428 0.06561279 0.057403564 0.2434082 0.11633301 0.0670166
0.11468506 -0.0140686035 -0.13134766 -0.017868042 0.11212158 0.20410156 0.086120605 -0.46069336
-0.33984375 -0.29174805 0.1665039 0.44799805 -0.6020508 -0.35107422 -0.11804199 0.23010254
0.24853516 -0.34106445 0.052947998 -0.083862305 0.05029297 -0.060455322 0.0074691772 -0.017349243
-0.036956787 0.04751587 0.1048584 -0.019104004 -0.04345703 -0.10699463 0.2709961 0.103393555
-0.15600586 -0.1381836 -0.14221191 0.03652954 0.16687012 -0.8413086 -0.36376953 -0.18200684
0.19421387 -0.15429688 -0.5605469 -0.2133789 -0.13549805 0.3173828 -0.14855957 -0.2644043
-0.040374756 -0.0006427765 0.11706543 -0.038116455 -0.2109375 -0.07299805 -0.1953125 0.053955078
0.043304443 0.10076904 -0.09442139 0.021240234 -0.04788208 0.018218994 0.3947754 0.0927124
-0.07019043 0.15710449 0.21044922 -0.10656738 0.43432617 0.1104126 0.14794922 0.33691406
0.058563232 0.021133423 0.054992676 0.070617676 0.0020980835 0.099609375 0.01524353 -0.04751587
0.0010499954 -0.056030273 -0.24328613 -0.15332031 0.0869751 0.11682129 -0.034362793 -0.26000977
0.030517578 0.16467285 0.06585693 0.27270508 0.38232422 0.29077148 0.034820557 -0.044891357
0.022247314 -0.026977539 -0.008834839 -0.140625 -0.036193848 -0.05279541 -0.13647461 -0.048095703
-0.04333496 0.015327454 0.47851562 0.40649414 0.36816406 0.4663086 -0.11456299 0.3474121
0.46289062 0.3725586 0.22912598 0.03866577 0.55126953 0.08691406 0.07543945 0.044036865
0.13867188 -0.5678711 -0.48046875 -0.50878906 -0.55566406 0.32543945 -0.12878418 -0.040405273
-0.14562988 -0.49145508 -0.0791626 -0.12384033 0.05908203 -0.46557617 0.1875 -0.22631836
00000000: 00a0 d13d 00c0 e7bd 00e0 65bb 0040 83bd
00000010: 0020 98bd 0000 773b 00e0 f7be 0080 64bf
00000020: 00a0 3abf 0040 71bd 0040 a3bb 0020 773d
00000030: 0000 8dbd 0060 923d 0020 19bc 0000 23be
00000040: 00a0 88bd 00a0 4a3d 0020 22be 0060 97bb
00000050: 0080 c03d 00c0 2f3d 0020 b83c 00e0 abba
00000060: 0000 b8bc 00a0 59bd 0040 cebd 00e0 153f
00000070: 0040 de3d 00e0 92bd 00e0 293e 0020 343e
00000080: 00a0 463f 00c0 843e 0020 c43c 00e0 013e
00000090: 00a0 31bd 0040 42be 0000 fdbd 00e0 a23e
000000a0: 0000 253e 0000 3cbf 00c0 97bf 00e0 00bf
000000b0: 0040 843e 00c0 d33c 00e0 4a3e 0060 4b3e
000000c0: 0020 8f3e 0040 253d 0040 c6bd 0000 51bd
000000d0: 0040 babc 00e0 8abd 0040 82bc 00a0 b3bd
000000e0: 0060 dfbd 0060 543d 0000 96bd 0020 b0bd
000000f0: 00c0 bbbd 0040 c7bd 0020 6f3e 00e0 073d
00000100: 00e0 05be 00c0 8dbd 0020 7cbd 0040 60bd
00000110: 0080 d7bd 00c0 87bd 0020 a3ba 0080 6f3c
00000120: 00e0 aa3c 00c0 193d 0020 963a 00e0 b0be
00000130: 0060 dcbd 0000 22be 00e0 853d 0040 17bc
00000140: 0080 70be 00e0 b5bd 00c0 1cbf 0020 dabe
00000150: 00a0 84bd 00c0 97be 0060 60bf 0060 9fbf
00000160: 0040 9bbf 0060 eebd 00e0 a9be 0020 87be
00000170: 0080 d73f 0000 503f 0080 843e 0080 073e
00000180: 00c0 b8b8 00c0 e73e 0000 343f 00c0 293f
00000190: 0060 32be 0000 01be 0080 94be 0080 fdbd
000001a0: 00e0 3ebe 00a0 afbd 0020 45be 0000 c5be
000001b0: 0060 16be 00c0 a9bd 0080 c1bc 0080 f13d
000001c0: 00c0 6c3e 00a0 36bb 00e0 99bd 0060 863d
000001d0: 0020 6b3d 0040 793e 0040 ee3d 0040 893d
000001e0: 00e0 ea3d 0080 66bc 0080 06be 0060 92bc
000001f0: 00a0 e53d 0000 513e 0060 b03d 00e0 ebbe
00000200: 0000 aebe 0060 95be 0080 2a3e 0060 e53e
00000210: 0020 1abf 00c0 b3be 00c0 f1bd 00a0 6b3e
00000220: 0080 7e3e 00a0 aebe 00e0 583d 00c0 abbd
00000230: 0000 4e3d 00a0 77bd 00c0 f43b 0020 8ebc
00000240: 0060 17bd 00a0 423d 00c0 d63d 0080 9cbc
00000250: 0000 32bd 0020 dbbd 00c0 8a3e 00c0 d33d
00000260: 00c0 1fbe 0080 0dbe 00a0 11be 00a0 153d
00000270: 00e0 2a3e 0060 57bf 0040 babe 0060 3abe
00000280: 00e0 463e 0000 1ebe 0080 0fbf 0080 5abe
00000290: 00c0 0abe 0080 a23e 0020 18be 0060 87be
000002a0: 0060 25bd 0080 28ba 00c0 ef3d 0020 1cbd
000002b0: 0000 58be 0080 95bd 0000 48be 0000 5d3d
000002c0: 0060 313d 0060 ce3d 0060 c1bd 0000 ae3c
000002d0: 0020 44bd 0040 953c 0020 ca3e 00e0 bd3d
000002e0: 00c0 8fbd 00e0 203e 0080 573e 0040 dabd
000002f0: 0060 de3e 0020 e23d 0080 173e 0080 ac3e
00000300: 00e0 6f3d 0020 ad3c 0040 613d 00a0 903d
00000310: 0080 093b 0000 cc3d 00c0 793c 00a0 42bd
00000320: 00a0 893a 0080 65bd 0020 79be 0000 1dbe
00000330: 0020 b23d 0040 ef3d 00c0 0cbd 0020 85be
00000340: 0000 fa3c 00a0 283e 00e0 863d 00a0 8b3e
00000350: 00c0 c33e 00e0 943e 00a0 0e3d 00e0 37bd
00000360: 0040 b63c 0000 ddbc 00c0 10bc 0000 10be
00000370: 0040 14bd 0040 58bd 00c0 0bbe 0000 45bd
00000380: 0080 31bd 0020 7b3c 0000 f53e 0020 d03e
00000390: 0080 bc3e 00c0 ee3e 00a0 eabd 00e0 b13e
000003a0: 0000 ed3e 00c0 be3e 00a0 6a3e 0060 1e3d
000003b0: 0020 0d3f 0000 b23d 0080 9a3d 0060 343d
000003c0: 0000 0e3e 0060 11bf 0000 f6be 0040 02bf
000003d0: 0040 0ebf 00a0 a63e 00e0 03be 0080 25bd
000003e0: 0020 15be 00a0 fbbe 0020 a2bd 00a0 fdbd
000003f0: 0000 723d 0060 eebe 0000 403e 00c0 67be

selfie_block1.conv2.bias f4 [128]
0.68115234 0.36401367 3.1328125 0.1328125 1.1357422 0.6845703 0.16540527 -1.1582031
-1.0976562 -0.5415039 -2.4101562 0.14111328 -2.5117188 0.91015625 3.8535156 -0.09710693
1.1582031 -2.2460938 1.1035156 -0.15466309 -0.38378906 -0.27026367 0.00034332275 1.1865234
-0.6459961 -0.73779297 0.7895508 -0.7446289 -0.32226562 3.484375 0.46948242 -0.026306152
-1.7792969 0.34472656 -1.9619141 -0.30029297 0.39038086 -0.36279297 0.8857422 -0.60058594
1.7568359 1.5126953 0.40649414 -0.41381836 1.2392578 0.080200195 -0.18249512 -0.6586914
0.079711914 4.2148438 -0.8876953 0.31225586 -0.8955078 0.5756836 -0.5761719 0.4819336
-0.6669922 -0.13195801 0.9746094 -0.46142578 0.08831787 1.4267578 -1.1748047 -2.546875
1.0820312 1.0761719 1.7275391 -0.25952148 -1.2597656 -0.36499023 0.8510742 0.84228516
0.10131836 0.98779297 -1.4003906 -2.0820312 0.94384766 0.74853516 -0.06982422 1.4638672
-1.8007812 -1.5605469 0.58154297 -0.82958984 -3.6679688 -0.65283203 -0.63916016 2.5859375
0.84277344 -1.8359375 0.17712402 0.2565918 -0.24108887 0.21887207 -0.66259766 1.3369141
-0.32104492 0.83740234 -1.4238281 2.2265625 0.7915039 -2.1503906 0.7895508 2.1503906
-0.15905762 -0.20629883 -0.47583008 -0.36523438 1.7470703 0.15881348 -0.9902344 -0.06390381
-1.1962891 -0.26489258 0.76123047 0.4765625 1.9863281 0.64941406 -0.036376953 0.6591797
-0.6972656 0.41186523 -0.6435547 0.11651611 0.9814453 0.6191406 1.4267578 0.734375
00000000: 0060 2e3f 0060 ba3e 0080 4840 0000 083e
00000010: 0060 913f 0040 2f3f 0060 293e 0040 94bf
00000020: 0080 8cbf 00a0 0abf 0040 1ac0 0080 103e
00000030: 00c0 20c0 0000 693f 00a0 7640 00e0 c6bd
00000040: 0040 943f 00c0 0fc0 0040 8d3f 0060 1ebe
00000050: 0080 c4be 0060 8abe 0000 b439 00e0 973f
00000060: 0060 25bf 00e0 3cbf 0020 4a3f 00a0 3ebf
00000070: 0000 a5be 0000 5f40 0060 f03e 0080 d7bc
00000080: 00c0 e3bf 0080 b03e 0020 fbbf 00c0 99be
00000090: 00e0 c73e 00c0 b9be 00c0 623f 00c0 19bf
000000a0: 00e0 e03f 00a0 c13f 0020 d03e 00e0 d3be
000000b0: 00a0 9e3f 0040 a43d 00e0 3abe 00a0 28bf
000000c0: 0040 a33d 00e0 8640 0040 63bf 00e0 9f3e
000000d0: 0040 65bf 0060 133f 0080 13bf 00c0 f63e
000000e0: 00c0 2abf 0020 07be 0080 793f 0040 ecbe
000000f0: 00e0 b43d 00a0 b63f 0060 96bf 0000 23c0
00000100: 0080 8a3f 00c0 893f 0020 dd3f 00e0 84be
00000110: 0040 a1bf 00e0 babe 00e0 593f 00a0 573f
00000120: 0080 cf3d 00e0 7c3f 0040 b3bf 0040 05c0
00000130: 00a0 713f 00a0 3f3f 0000 8fbd 0060 bb3f
00000140: 0080 e6bf 00c0 c7bf 00e0 143f 0060 54bf
00000150: 00c0 6ac0 0020 27bf 00a0 23bf 0080 2540
00000160: 00c0 573f 0000 ebbf 0060 353e 0060 833e
00000170: 00e0 76be 0020 603e 00a0 29bf 0020 ab3f
00000180: 0060 a4be 0060 563f 0040 b6bf 0080 0e40
00000190: 00a0 4a3f 00a0 09c0 0020 4a3f 00a0 0940
000001a0: 00e0 22be 0040 53be 00a0 f3be 0000 bbbe
000001b0: 00a0 df3f 00a0 223e 0080 7dbf 00e0 82bd
000001c0: 0020 99bf 00a0 87be 00e0 423f 0000 f43e
000001d0: 0040 fe3f 0040 263f 0000 15bd 00c0 283f
000001e0: 0080 32bf 00e0 d23e 00c0 24bf 00a0 ee3d
000001f0: 0040 7b3f 0080 1e3f 00a0 b63f 0000 3c3f

selfie_block1.sub_block.conv1.weight f4 [32, 128, 1, 1]
-0.0037193298 -0.03564453 0.22741699 -0.21936035 -0.44213867 0.24365234 -0.10253906 -0.24316406
0.16101074 0.031341553 -0.2602539 0.16796875 0.041290283 -0.24121094 -0.13549805 -0.06011963
-0.61035156 -0.23815918 -0.44555664 0.011276245 -0.06732178 -0.37548828 0.098083496 -0.55126953
-0.625 -0.26953125 -0.12133789 -0.48291016 -0.10723877 -0.1307373 0.011886597 0.06939697
-0.2553711 -0.3972168 -0.28930664 -0.6323242 -0.20214844 -0.22570801 -0.12585449 -0.21386719
0.1616211 -0.0715332 -0.36401367 -0.5395508 -0.43920898 -0.1652832 -0.053710938 -0.062286377
-0.056671143 0.021942139 -0.13879395 -0.28198242 -0.15197754 -0.40405273 0.088134766 -0.13647461
-0.16040039 -0.28320312 -0.2578125 -0.14428711 -0.28393555 -0.4543457 0.10656738 -0.17382812
-0.16088867 -0.23986816 -0.11206055 -0.24743652 -0.26367188 -0.14624023 -0.16149902 0.18469238
0.064575195 -0.10345459 0.10180664 -0.0032424927 -0.59814453 -0.15515137 -0.023757935 -0.14440918
0.15844727 -0.043670654 0.23950195 -0.15673828 0.0019187927 -0.4506836 0.1694336 0.046813965
-0.026351929 -0.23535156 0.14440918 -0.20983887 -0.07458496 -0.11425781 0.30615234 -0.03353882
0.05819702 -0.3737793 -0.24804688 -0.2956543 0.3359375 -0.06149292 -0.17712402 -0.19470215
0.5913086 0.08477783 -0.24914551 -0.17004395 -0.023635864 -0.043701172 -0.025344849 0.1920166
-0.19689941 -0.44555664 -0.20617676 -0.14294434 -0.12005615 0.1340332 -0.38232422 -0.052459717
-0.26464844 0.05734253 0.17956543 -0.30541992 -0.14343262 -0.49145508 -0.1854248 -0.47509766
-0.39697266 -0.45874023 0.69189453 -0.31469727 0.09326172 -1.1572266 0.68408203 0.04156494
0.13720703 -1.4697266 -2.3789062 0.052093506 -1.3535156 0.0132369995 -0.052734375 -0.4074707
-0.3059082 0.19262695 0.5913086 0.9213867 -0.51660156 0.36376953 -0.73828125 -0.020507812
-0.19372559 0.25976562 -1.0693359 0.58203125 0.09277344 2.8300781 0.29052734 -0.7993164
-1.7607422 -0.23181152 -1.0195312 0.52490234 1.359375 0.7763672 0.08874512 0.98095703
-0.020584106 -1.4345703 0.39672852 0.22912598 -1.0673828 -0.0748291 -0.73583984 -0.28955078
-0.30078125 -0.37036133 0.10321045 0.92333984 -3.2285156 -0.21057129 -0.84033203 0.27368164
-0.24316406 0.58251953 -0.26538086 -1.5869141 0.74121094 0.31689453 -0.6254883 -0.04562378
0.14794922 0.40478516 0.89990234 0.22399902 -2.0976562 -0.6879883 -0.20812988 0.84716797
0.27197266 -0.17456055 0.6347656 -0.2409668 1.34375 -0.72802734 -0.2409668 -0.5859375
1.1582031 -1.9726562 0.6274414 -1.0400391 0.07366943 -0.23620605 -0.7397461 -0.64941406
1.4228516 0.2467041 0.16577148 -0.9555664 -0.43359375 -0.4086914 1.8046875 0.66259766
-2.03125 0.029449463 -0.067993164 -1.4306641 -0.21386719 -0.6064453 -0.5463867 0.32104492
-0.44482422 -0.6845703 -0.45263672 -0.7348633 2.2304688 0.7651367 0.5371094 -0.00843811
1.1386719 -1.1044922 -0.115112305 -0.15429688 0.90283203 -0.17834473 -0.37109375 -0.6401367
0.57177734 -0.68066406 -0.21069336 -1.2363281 -0.31030273 -0.46069336 0.25390625 0.46704102
00000000: 00c0 73bb 0000 12bd 00e0 683e 00a0 60be
00000010: 0060 e2be 0080 793e 0000 d2bd 0000 79be
00000020: 00e0 243e 0060 003d 0040 85be 0000 2c3e
00000030: 0020 293d 0000 77be 00c0 0abe 0040 76bd
00000040: 0040 1cbf 00e0 73be 0020 e4be 00c0 383c
00000050: 00e0 89bd 0040 c0be 00e0 c83d 0020 0dbf
00000060: 0000 20bf 0000 8abe 0080 f8bd 0040 f7be
00000070: 00a0 dbbd 00e0 05be 00c0 423c 0020 8e3d
00000080: 00c0 82be 0060 cbbe 0020 94be 00e0 21bf
00000090: 0000 4fbe 0020 67be 00e0 00be 0000 5bbe
000000a0: 0080 253e 0080 92bd 0060 babe 0020 0abf
000000b0: 00e0 e0be 0040 29be 0000 5cbd 0020 7fbd
000000c0: 0020 68bd 00c0 b33c 0020 0ebe 0060 90be
000000d0: 00a0 1bbe 00e0 cebe 0080 b43d 00c0 0bbe
000000e0: 0040 24be 0000 91be 0000 84be 00c0 13be
000000f0: 0060 91be 00a0 e8be 0040 da3d 0000 32be
00000100: 00c0 24be 00a0 75be 0080 e5bd 0060 7dbe
00000110: 0000 87be 00c0 15be 0060 25be 0020 3d3e
00000120: 0040 843d 00e0 d3bd 0080 d03d 0080 54bb
00000130: 0020 19bf 00e0 1ebe 00a0 c2bc 00e0 13be
00000140: 0040 223e 00e0 32bd 0040 753e 0080 20be
00000150: 0080 fb3a 00c0 e6be 0080 2d3e 00c0 3f3d
00000160: 00e0 d7bc 0000 71be 00e0 133e 00e0 56be
00000170: 00c0 98bd 0000 eabd 00c0 9c3e 0060 09bd
00000180: 0060 6e3d 0060 bfbe 0000 7ebe 0060 97be
00000190: 0000 ac3e 00e0 7bbd 0060 35be 0060 47be
000001a0: 0060 173f 00a0 ad3d 0020 7fbe 0020 2ebe
000001b0: 00a0 c1bc 0000 33bd 00a0 cfbc 00a0 443e
000001c0: 00a0 49be 0020 e4be 0020 53be 0060 12be
000001d0: 00e0 f5bd 0040 093e 00c0 c3be 00e0 56bd
000001e0: 0080 87be 00e0 6a3d 00e0 373e 0060 9cbe
000001f0: 00e0 12be 00a0 fbbe 00e0 3dbe 0040 f3be
00000200: 0040 cbbe 00e0 eabe 0020 313f 0020 a1be
00000210: 0000 bf3d 0020 94bf 0020 2f3f 0040 2a3d
00000220: 0080 0c3e 0020 bcbf 0040 18c0 0060 553d
00000230: 0040 adbf 00e0 583c 0000 58bd 00a0 d0be
00000240: 00a0 9cbe 0040 453e 0060 173f 00e0 6b3f
00000250: 0040 04bf 0040 ba3e 0000 3dbf 0000 a8bc
00000260: 0060 46be 0000 853e 00e0 88bf 0000 153f
00000270: 0000 be3d 0020 3540 00c0 943e 00a0 4cbf
00000280: 0060 e1bf 0060 6dbe 0080 82bf 0060 063f
00000290: 0000 ae3f 00c0 463f 00c0 b53d 0020 7b3f
000002a0: 00a0 a8bc 00a0 b7bf 0020 cb3e 00a0 6a3e
000002b0: 00a0 88bf 0040 99bd 0060 3cbf 0040 94be
000002c0: 0000 9abe 00a0 bdbe 0060 d33d 0060 6c3f
000002d0: 00a0 4ec0 00a0 57be 0020 57bf 0020 8c3e
000002e0: 0000 79be 0020 153f 00e0 87be 0020 cbbf
000002f0: 00c0 3d3f 0040 a23e 0020 20bf 00e0 3abd
00000300: 0080 173e 0040 cf3e 0060 663f 0060 653e
00000310: 0040 06c0 0020 30bf 0020 55be 00e0 583f
00000320: 0040 8b3e 00c0 32be 0080 223f 00c0 76be
00000330: 0000 ac3f 0060 3abf 00c0 76be 0000 16bf
00000340: 0040 943f 0080 fcbf 00a0 203f 0020 85bf
00000350: 00e0 963d 00e0 71be 0060 3dbf 0040 26bf
00000360: 0020 b63f 00a0 7c3e 00c0 293e 00a0 74bf
00000370: 0000 debe 0040 d1be 0000 e73f 00a0 293f
00000380: 0000 02c0 0040 f13c 0040 8bbd 0020 b7bf
00000390: 0000 5bbe 0040 1bbf 00e0 0bbf 0060 a43e
000003a0: 00c0 e3be 0040 2fbf 00c0 e7be 0020 3cbf
000003b0: 00c0 0e40 00e0 433f 0080 093f 0040 0abc
000003c0: 00c0 913f 0060 8dbf 00c0 ebbd 0000 1ebe
000003d0: 0020 673f 00a0 36be 0000 bebe 00e0 23bf
000003e0: 0060 123f 0040 2ebf 00c0 57be 0040 9ebf
000003f0: 00e0 9ebe 00e0 ebbe 0000 823e 0020 ef3e

selfie_block1.sub_block.conv1.bias f4 [32]
-0.3112793 0.38891602 -0.33691406 -0.4519043 -0.16040039 -0.4790039 -0.34326172 -0.47094727
0.57666016 -0.13928223 -0.10241699 -0.17785645 -0.52001953 -0.47192383 -0.023544312 -0.2614746
-0.79589844 -0.33642578 0.4987793 -0.08477783 0.07946777 -0.15637207 -0.03591919 -0.09307861
-0.79589844 -0.23242188 -0.2322998 -0.15783691 -0.12646484 -0.23999023 -0.1373291 0.29833984
00000000: 0060 9fbe 0020 c73e 0080 acbe 0060 e7be
00000010: 0040 24be 0040 f5be 00c0 afbe 0020 f1be
00000020: 00a0 133f 00a0 0ebe 00c0 d1bd 0020 36be
00000030: 0020 05bf 00a0 f1be 00e0 c0bc 00e0 85be
00000040: 00c0 4bbf 0040 acbe 0060 ff3e 00a0 adbd
00000050: 00c0 a23d 0020 20be 0020 13bd 00a0 bebd
00000060: 00c0 4bbf 0000 6ebe 00e0 6dbe 00a0 21be
00000070: 0080 01be 00c0 75be 00a0 0cbe 00c0 983e
